aip/mymodel_9000.pt (torch, 4943 bytes, 7 tensors)

weight f4 [10, 2]
-4.077797 -3.8793998 0.36426204 0.5524428 2.2461567 -4.1288533 -0.74298245 2.6807632
-5.124242 3.4876072 0.7889333 0.8543956 3.381694 3.1675816 -0.5092553 -0.4206437
-0.87079203 0.13523227 -0.8483857 -0.49649113
00000000: 507d 82c0 1648 78c0 8e80 ba3e e46c 0d3f
00000010: 08c1 0f40 911f 84c0 1934 3ebf a091 2b40
00000020: caf9 a3c0 f534 5f40 88f7 493f acb9 5a3f
00000030: ad6d 5840 a8b9 4a40 8e5e 02bf 9c5e d7be
00000040: 3aec 5ebf 547a 0a3e ce2f 59bf 1634 febe

bias f4 [10]
0.824606 0.11245776 -0.8823904 0.09174673 -1.5359511 -0.6774825 -0.28603604 -0.19526757
0.109450996 0.04668597
00000000: 6119 533f 4150 e63d 56e4 61bf b6e5 bb3d
00000010: 0c9a c4bf 7e6f 2dbf 5173 92be 39f4 47be
00000020: d827 e03d ca39 3f3d

weight f4 [10, 10]
1.6636184 0.7181663 -1.7478496 1.2443833 -2.721237 0.5955435 -1.3890194 -0.1395949
0.23039897 -0.4335531 0.61479115 0.0063538565 -0.69551665 0.57000244 -0.89041364 0.028714225
-0.3969457 0.07344985 -0.37680855 -0.22880332 1.6134912 0.18635416 -1.0955129 0.58968836
-1.6562812 0.56458443 -0.81694376 -0.36451924 0.16050263 -0.27343783 2.3736703 0.49750593
-2.2800574 1.3983815 -2.9151514 0.6642038 -1.5155224 -0.03525235 0.10558209 -0.26696134
0.3794311 -0.22831494 -0.594212 0.08041402 -0.6020018 0.15502205 -0.37176672 0.23862435
-0.28992105 0.16493107 -2.2807143 -0.2664556 2.4348698 -1.6561226 3.275419 -0.96912974
1.0694848 0.40730733 0.36537865 0.26988357 0.21003306 0.09483958 -0.097767666 -0.227612
0.09916531 0.08352687 -0.2555541 -0.0016833491 -0.35107496 -0.22980532 -0.42032102 -0.1504937
1.0109838 -0.7445767 1.3227265 -0.21308944 0.3354481 0.20321344 0.2553585 0.056624386
-0.8092355 -0.43196717 0.8063607 -0.6859667 1.1195872 -0.18635295 0.29862437 -0.022763114
0.14924096 0.40539253 -1.2062097 -0.3741854 1.1553504 -0.93634975 1.3026024 -0.5129751
0.8481276 0.032071356 0.2600351 0.31456608
00000000: 73f1 d43f bfd9 373f 89b9 dfbf f447 9f3f
00000010: bf28 2ec0 8a75 183f 63cb b1bf f7f1 0ebe
00000020: b5ed 6b3e acfa ddbe f462 1d3f 0334 d03b
00000030: 610d 32bf aeeb 113f 26f2 63bf 183a eb3c
00000040: 773c cbbe e06c 963d 0ded c0be 6b4b 6abe
00000050: e186 ce3f a0d3 3e3e c439 8cbf d1f5 163f
00000060: 0601 d4bf 9b88 103f 3a23 51bf 44a2 babe
00000070: cd5a 243e 0b00 8cbe 37ea 1740 19b9 fe3e
00000080: 76ec 11c0 2afe b23f d791 3ac0 4309 2a3f
00000090: a3fc c1bf c564 10bd 6c3b d83d 28af 88be
000000a0: cb44 c23e 64cb 69be 471e 18bf 1bb0 a43d
000000b0: ca1c 1abf 1abe 1e3e 3558 bebe f159 743e
000000c0: 8870 94be b1e3 283e 39f7 11c0 de6c 88be
000000d0: e8d4 1b40 d3fb d3bf 77a0 5140 e318 78bf
000000e0: e1e4 883f 968a d03e e912 bb3e 2e2e 8a3e
000000f0: e812 573e 413b c23d 6a3a c8bd 1f13 69be
00000100: 2f17 cb3d 2310 ab3d fdd7 82be d3a3 dcba
00000110: 19c0 b3be 1652 6bbe 5134 d7be 051b 1abe
00000120: eb67 813f 949c 3ebf 1a4f a93f 1e34 5abe
00000130: dabf ab3e 2f17 503e 59be 823e f9ee 673d
00000140: 0f2a 4fbf cd2a ddbe a86d 4e3f 839b 2fbf
00000150: a24e 8f3f 4fd3 3ebe 4be5 983e b679 babc
00000160: 9fd2 183e 9c8f cf3e 1465 9abf 3b95 bfbe
00000170: 86e2 933f 9eb4 6fbf adbb a63f 5652 03bf
00000180: e41e 593f 415d 033d 5223 853e ce0e a13e

bias f4 [10]
0.5353424 0.11807458 0.40319195 0.71947086 -0.18927486 -0.5750949 -0.09925816 -0.16287446
0.12539165 -0.16459963
00000000: 330c 093f 16d1 f13d 2d6f ce3e 3e2f 383f
00000010: 45d1 41be 6b39 13bf dd47 cbbd 90c8 26be
00000020: ab66 003e ce8c 28be

weight f4 [10, 10]
1.3874294 0.4341226 0.9846192 1.6957943 0.46886447 -1.6354269 -0.25257155 -0.6663339
-0.3346137 -0.7816599 -1.5002644 -0.64276403 -0.59415984 -1.7506663 -0.18713835 1.8958336
-0.21617448 0.71100146 0.5952928 0.6946759 -0.6410809 0.044063628 -0.37624803 -0.79741216
-0.18474455 0.75108606 0.038367506 0.103908665 0.2314476 0.35201234 -1.3331903 -0.5354979
-0.957848 -1.0832373 -0.1888726 1.6857275 -0.27561706 0.45054868 0.72157717 0.8809449
1.1099411 0.2701156 1.0124625 1.69973 0.4739586 -1.9742056 0.023561174 -0.50521713
-0.8697296 -0.97504777 -0.07846592 -0.21562195 0.10149465 -0.32663518 -0.085519224 0.34003145
0.07174889 -0.15253955 0.06537393 -0.030841503 2.015159 0.81990755 1.3689232 2.4571261
0.1951489 -2.450402 -0.25794235 -0.8648927 -0.60112464 -1.3761846 0.78005034 0.44256374
0.45581165 0.6712948 0.05152439 -0.71162903 -0.22676857 -0.6326411 -0.48235917 -0.3555062
-1.9512268 -0.37529314 -1.3397508 -2.317532 -0.43449482 2.5492773 -0.27225623 1.0989795
0.9694456 1.0894063 -0.534931 -0.14352295 -0.124085054 -0.9834318 -0.26859096 0.502939
-0.13626191 0.09519121 0.38766715 0.11033108
00000000: 4997 b13f 5145 de3e 0110 7c3f ca0f d93f
00000010: 010f f03e ab55 d1bf 0f51 81be dc94 2abf
00000020: 7d52 abbe dd1a 48bf aa08 c0bf 2f8c 24bf
00000030: dc1a 18bf d515 e0bf 32a1 3fbe adaa f23f
00000040: d85c 5dbe 3104 363f 1c65 183f 48d6 313f
00000050: e11d 24bf 107c 343d 95a3 c0be 3423 4cbf
00000060: ad2d 3dbe 2d47 403f 3f27 1d3d 11ce d43d
00000070: 9a00 6d3e f63a b43e fba5 aabf 6416 09bf
00000080: 8735 75bf 85a7 8abf d267 41be ebc5 d73f
00000090: ae1d 8dbe 51ae e63e 48b9 383f 9b85 613f
000000a0: 8d12 8e3f 984c 8a3e 5f98 813f c190 d93f
000000b0: b4aa f23e c5b2 fcbf 5d03 c13c e955 01bf
000000c0: 99a6 5ebf bb9c 79bf beb2 a0bd 00cc 5cbe
000000d0: 6ddc cf3d ba3c a7be b424 afbd 9a18 ae3e
000000e0: 15f1 923d 5433 1cbe c4e2 853d 52a7 fcbc
000000f0: 5df8 0040 76e5 513f e038 af3f 8e41 1d40
00000100: 1dd5 473e 63d3 1cc0 0511 84be 9c69 5dbf
00000110: 4ee3 19bf d126 b0bf 61b1 473f b797 e23e
00000120: 2560 e93e fad9 2b3f 3d0b 533d 522d 36bf
00000130: 0536 68be c4f4 21bf c8f7 f6be e904 b6be
00000140: cdc1 f9bf 6c26 c0be f47c abbf 7252 14c0
00000150: 1b76 debe 5c27 2340 2b65 8bbe 5cab 8c3f
00000160: 962d 783f aa71 8b3f 3df1 08bf aef7 12be
00000170: 4e20 febd 30c2 7bbf c184 89be 9cc0 003f
00000180: 3e88 0bbe 9cf3 c23d 4f7c c63e 43f5 e13d

bias f4 [10]
-0.3874667 0.20504954 -0.031596225 0.020471983 0.1623555 0.13323008 -0.34763962 0.073088884
0.10404656 0.2191716
00000000: 0962 c6be 82f8 513e 0b6b 01bd dcb4 a73c
00000010: 8540 263e 776d 083e d2fd b1be a0af 953d
00000020: 5d16 d53d 856e 603e

weight f4 [1, 10]
-3.3386698 3.4806414 1.3244251 2.996543 -3.5299146 0.3487395 -5.2660356 -1.5808797
5.139689 1.1973164
00000000: c4ac 55c0 d4c2 5e40 c386 a93f 5cc7 3f40
00000010: 1fea 61c0 fc8d b23e 5d83 a8c0 445a cabf
00000020: 5578 a440 aa41 993f
