aip/mymodel_5000.pt (torch, 4943 bytes, 7 tensors)

weight f4 [10, 2]
00000000: e10c 82c0 711d 77c0 fc29 b73e 75ee 0b3f
00000010: 49de 0d40 990f 83c0 d0f0 39bf b1c6 2940
00000020: 64ea a2c0 0e32 5d40 fb86 473f cd06 593f
00000030: 48d4 5740 29ea 4940 69bf 01bf 2b7f d6be
00000040: fa26 5ebf 630d 0c3e e939 58bf a4e2 fdbe
-4.064072 -3.861172 0.3577422 0.5466073 2.2166922 -4.095654 -0.72633076 2.6527522
-5.091112 3.45618 0.7794034 0.84776 3.3723316 3.154917 -0.50682694 -0.41893896
-0.86778224 0.13676982 -0.84463364 -0.49586976

bias f4 [10]
00000000: aa62 4f3f 0df4 ec3d 9c2a 5ebf d1b0 b13d
00000010: acf9 c2bf 54bd 2abf 5639 8dbe b065 49be
00000020: 53b7 e13d 102e 2c3d
0.81009924 0.115699865 -0.86783767 0.08676303 -1.5232444 -0.6669514 -0.27582806 -0.19667697
0.110212944 0.042036116

weight f4 [10, 10]
00000000: a35f d33f 7c89 363f e0b1 dcbf 1176 9d3f
00000010: 6835 2cc0 cf3a 163f 46eb b0bf 9aed 0bbe
00000020: 4bef 6e3e f4c8 dbbe f0e1 1b3f 528f 293b
00000030: 68f9 2fbf 7a1b 103f ebcf 60bf 6654 c33c
00000040: 76e3 cabe f4b4 963d b6eb c0be 02a0 69be
00000050: 076a cd3f b1f5 393e ffff 89bf 07fe 133f
00000060: 7815 d1bf cb9d 0e3f 5837 50bf 339a b9be
00000070: c654 263e a468 8abe 2944 1740 c08c fb3e
00000080: a667 10c0 1422 b13f 5c2a 38c0 f234 273f
00000090: a256 c1bf 6754 fdbc d9be e23d 6e61 85be
000000a0: cf51 c03e a881 6cbe cee5 16bf c3ff 9a3d
000000b0: d953 18bf c177 1b3e 3558 bebe 2326 743e
000000c0: 099f 94be 18f4 283e 57f7 10c0 c3a3 85be
000000d0: 184e 1a40 c62e d2bf 1b67 4f40 05d3 75bf
000000e0: d7cb 873f 0644 cf3e 6096 b93e 1839 883e
000000f0: 35de 563e 0771 c23d 7e4c c7bd 1f13 69be
00000100: 284c cc3d c31f ab3d dba4 82be 1083 cbba
00000110: f9ac b3be 072b 6bbe 212b d3be f976 17be
00000120: 7dc6 7f3f d2e0 3cbf 360b a73f 3bc9 55be
00000130: 1a6d a93e 20c2 4e3e 73ef 813e 81d7 5f3d
00000140: b824 4dbf 800e dcbe de3e 4b3f c1f3 2dbf
00000150: 42f5 8c3f d1b0 3abe 4133 963e 9fb3 c7bc
00000160: b4cf 163e b85f ce3e 8038 99bf f8ca bdbe
00000170: ce11 923f d699 6dbf 76b1 a33f cbcd 01bf
00000180: d1d6 573f 6e42 f73c c1da 833e ec8e 9f3e
1.6513561 0.71303535 -1.7241783 1.2301656 -2.6907597 0.58683485 -1.38218 -0.13664857
0.2333347 -0.42926753 0.6089163 0.002587278 -0.6873994 0.56291926 -0.8781726 0.023843955
-0.39626664 0.07358733 -0.37679833 -0.22814944 1.6047982 0.1816013 -1.0781249 0.5780949
-1.6334677 0.5570952 -0.8133445 -0.36250457 0.16243276 -0.2703296 2.3635352 0.4913082
-2.2563262 1.3838525 -2.8775854 0.65315163 -1.5104563 -0.030924035 0.110715576 -0.26050895
0.37562415 -0.23096335 -0.58944404 0.07568314 -0.5950294 0.15182401 -0.37176672 0.23842673
-0.29027584 0.16499364 -2.2650964 -0.26101503 2.4110165 -1.6420524 3.240668 -0.96025115
1.0609082 0.40481585 0.3624754 0.2660606 0.20983203 0.094942145 -0.097313866 -0.227612
0.09975463 0.083556674 -0.255164 -0.001552673 -0.35092905 -0.22965632 -0.41243842 -0.14791478
0.99912244 -0.7378055 1.3050296 -0.20877545 0.3309105 0.2019124 0.25377998 0.05464888
-0.80134153 -0.42979813 0.793928 -0.67950064 1.1012347 -0.18231513 0.2933598 -0.024377642
0.1472767 0.40307403 -1.1970367 -0.37068915 1.1411684 -0.9281286 1.2788532 -0.5070464
0.8431216 0.030183043 0.25752833 0.31163728

bias f4 [10]
00000000: 1784 083f 8241 ea3d 3e0e cd3e 34ac 373f
00000010: fbc5 44be 0977 12bf 69c9 cabd c474 25be
00000020: 82f8 003e 95ca 26be
0.53326553 0.11438276 0.40049928 0.71747136 -0.19216149 -0.57212883 -0.09901697 -0.16157824
0.12594798 -0.16288216

weight f4 [10, 10]
00000000: 7cd6 ae3f 8662 da3e f360 783f f0f5 d53f
00000010: f3db ed3e b9ce cdbf af51 81be de83 27bf
00000020: b18b a5be b34d 44bf f751 bdbf 82a1 22bf
00000030: 5c77 14bf f806 ddbf cb44 3bbe d532 ef3f
00000040: 084d 5dbe e502 333f 898f 153f 7919 2e3f
00000050: b2b1 20bf 8a9d 453d a32f bcbe a83b 48bf
00000060: 70e3 3abe 7144 3b3f cc2a 1a3d 8426 c23d
00000070: 231d 643e 8e88 ae3e b7f1 a7bf 8431 07bf
00000080: 1297 71bf 449a 87bf 351c 3dbe 9447 d43f
00000090: ae1d 8dbe b397 e03e 3ad9 353f cbbc 5d3f
000000a0: 4c54 8b3f 1163 863e 1f82 7f3f e37a d63f
000000b0: 0470 f03e be3b f9bf 3cae bf3c beb2 fcbe
000000c0: 27d7 5bbf ebe6 75bf bf18 97bd d5f0 5abe
000000d0: 148d d63d 958a a4be 5ce2 acbd 516c ab3e
000000e0: 4f7c 933d ad45 1ebe caf7 813d 513b 09bd
000000f0: efb2 ff3f 4457 503f c8bd ad3f 42ff 1b40
00000100: 8666 443e 9f5a 1bc0 54fd 83be 19cb 5abf
00000110: e76e 17bf ab8e aebf d60a 433f 8fe8 de3e
00000120: f8d9 e23e b5a4 263f 4df2 403d e233 31bf
00000130: cf84 69be e216 20bf 6673 f3be 210d b1be
00000140: b87e f7bf 01f7 bcbe fdfb a9bf 300d 13c0
00000150: 09af dcbe 22b2 2140 2b65 8bbe a063 8b3f
00000160: 01c7 753f c1df 893f 0fbb 05bf b2e2 0ebe
00000170: 4b54 edbd 2e19 78bf d569 88be 9e40 f83e
00000180: 0823 0cbe fce0 b13d 3e6b c23e e206 cd3d
1.3659205 0.42653292 0.9702293 1.6715679 0.4645687 -1.6078712 -0.25257632 -0.6543559
-0.3233314 -0.7668106 -1.4790639 -0.6352769 -0.5799463 -1.7267752 -0.18287961 1.8687388
-0.21611416 0.6992629 0.5842214 0.6800762 -0.6277114 0.048245944 -0.36755094 -0.7821603
-0.18250823 0.7315131 0.03763847 0.094800025 0.2227674 0.34088558 -1.312064 -0.5280993
-0.9437114 -1.0593953 -0.18467791 1.6584344 -0.27561706 0.43865737 0.71034586 0.866162
1.08851 0.26247457 0.99807924 1.6756252 0.4696046 -1.9471357 0.023398511 -0.4935512
-0.8587517 -0.9605548 -0.07377767 -0.21380933 0.10476127 -0.3213698 -0.08441612 0.33481076
0.07201444 -0.15456267 0.0634609 -0.033503834 1.9976481 0.81383157 1.3573542 2.4374547
0.19179735 -2.427406 -0.25779212 -0.8546615 -0.591536 -1.3637289 0.7618841 0.43536803
0.44306922 0.65095073 0.047106076 -0.6921979 -0.22804569 -0.62534916 -0.4754898 -0.3458033
-1.9335546 -0.369072 -1.3280026 -2.29768 -0.4310229 2.5264974 -0.27225623 1.0889778
0.9600678 1.0771409 -0.52238554 -0.13953665 -0.11588343 -0.9691342 -0.26643243 0.484868
-0.13685238 0.086854905 0.37972444 0.100110784

bias f4 [10]
00000000: c28c c5be 715e 503e b6e6 0ebd c4be 983c
00000010: d08d 273e 05c6 083e b713 b1be 1a7a 913d
00000020: c92d d23d a18a 5d3e
-0.38583952 0.20348527 -0.03488799 0.018645652 0.16362691 0.13356788 -0.34585354 0.07103367
0.10262639 0.21634914

weight f4 [1, 10]
00000000: 39b1 50c0 fee2 5940 4ed7 a43f a44e 3b40
00000010: 8ac4 5cc0 b81f ae3e 5079 a5c0 dc64 c4bf
00000020: b291 a140 d719 953f
-3.2608168 3.4044795 1.2878206 2.9266748 -3.4494958 0.34008574 -5.1710587 -1.534328
5.049035 1.1648511
