aip/mymodel_4000.pt (torch, 4943 bytes, 7 tensors)

weight f4 [10, 2]
0	0xc081e890	-4.059639
1	0xc076bd42	-3.8553014
2	0x3eb61713	0.3556448
3	0x3f0b7214	0.54470944
4	0x400d42f1	2.2072108
5	0xc082b7b6	-4.0849257
6	0xbf389562	-0.7210294
7	0x40293320	2.6437454
8	0xc0a292d3	-5.080423
9	0x405c8bf9	3.4460433
10	0x3f46bec1	0.7763482
11	0x3f5878eb	0.84559506
12	0x4057a321	3.3693316
13	0x4049a773	3.1508453
14	0xbf018cdc	-0.5060556
15	0xbed63684	-0.41838467
16	0xbf5de951	-0.8668414
17	0x3e0c8c8f	0.13725494
18	0xbf57ebcf	-0.8434419
19	0xbefdc70f	-0.49565932

bias f4 [10]
0	0x3f4e2d89	0.8053823
1	0x3def0d18	0.11672419
2	0xbf5cf8eb	-0.8631732
3	0x3dae878f	0.085219495
4	0xbfc27442	-1.5191729
5	0xbf29e2e6	-0.66361845
6	0xbe8b8993	-0.27253398
7	0xbe49dac8	-0.19712365
8	0x3de23610	0.11045468
9	0x3d261a86	0.04055264

weight f4 [10, 10]
0	0x3fd2de54	1.6474099
1	0x3f361d6e	0.71138656
2	0xbfdbb85c	-1.7165637
3	0x3f9ce061	1.2255975
4	0xc02b94f4	-2.6809664
5	0x3f158365	0.5840362
6	0xbfb0a32f	-1.37998
7	0xbe0af4e8	-0.13569987
8	0x3e6fe553	0.23427324
9	0xbedb1435	-0.42788854
10	0x3f1b6706	0.60704076
11	0x3ab43e53	0.0013751484
12	0xbf2f4fce	-0.6848115
13	0x3f0f86bd	0.5606497
14	0xbf5fd036	-0.8742708
15	0x3cb68570	0.022280425
16	0xbecac845	-0.3960592
17	0x3d96c9ea	0.07362731
18	0xbec0ebb6	-0.37679833
19	0xbe696a66	-0.22794494
20	0x3fcd0e68	1.6020021
21	0x3e3861ee	0.18006107
22	0xbf8949bb	-1.0725626
23	0x3f13098c	0.5743644
24	0xbfd02610	-1.6261616
25	0x3f0dff93	0.554681
26	0xbf4fed3f	-0.81221384
27	0xbeb9469d	-0.36186686
28	0x3e26f2db	0.1630358
29	0xbe89e711	-0.26934102
30	0x40170eb5	2.3602726
31	0x3efa874b	0.48931345
32	0xc00fea4a	-2.2486749
33	0x3fb088df	1.379177
34	0xc037640a	-2.865481
35	0x3f264bf6	0.6495966
36	0xbfc1214a	-1.5088284
37	0xbcf1e61d	-0.029528672
38	0x3de61f71	0.11236466
39	0xbe8450f6	-0.25843018
40	0x3ebfb296	0.37440938
41	0xbe6d5eb7	-0.23180662
42	0xbf16822a	-0.58792365
43	0x3d97ea50	0.074177384
44	0xbf17c25e	-0.59280956
45	0x3e1a6cc2	0.1508055
46	0xbebe5835	-0.37176672
47	0x3e741683	0.23836713
48	0xbe94aea8	-0.29039502
49	0x3e28fbbb	0.16502278
50	0xc010a4ec	-2.260066
51	0xbe84bdd2	-0.2592607
52	0x4019cfd7	2.4033105
53	0xbfd19a56	-1.6375225
54	0x404eaf98	3.2294674
55	0xbf75178b	-0.9573905
56	0x3f877124	1.0581403
57	0x3eceda86	0.40401095
58	0x3eb91c45	0.3615438
59	0x3e879791	0.26482823
60	0x3e56cd27	0.20976697
61	0x3dc28361	0.09497715
62	0xbdc6fe9e	-0.09716533
63	0xbe69131f	-0.227612
64	0x3dccb168	0.09994775
65	0x3dab23ab	0.083564125
66	0xbe8294f2	-0.2550426
67	0xbac5df60	-0.0015096478
68	0xbeb3a529	-0.35086945
69	0xbe6b1eec	-0.22961015
70	0xbed1e182	-0.4099236
71	0xbe16a01e	-0.14709517
72	0x3f7ecdba	0.99532664
73	0xbf3c5374	-0.7356484
74	0x3fa651cd	1.2993714
75	0xbe5460bc	-0.20740026
76	0x3ea8ae6d	0.32945576
77	0x3e4e5374	0.20149022
78	0x3e81acea	0.25327235
79	0x3d5d3ae3	0.054011237
80	0xbf4c7fda	-0.79882586
81	0xbedbb56c	-0.4291185
82	0x3f4a3a62	0.78995335
83	0xbf2d6d8f	-0.677453
84	0x3f8c3500	1.0953674
85	0xbe39620d	-0.1810381
86	0x3e9554b4	0.29166186
87	0xbccbffd3	-0.02490226
88	0x3e16291e	0.14664122
89	0x3ecdfd71	0.40232423
90	0xbf98d836	-1.1940982
91	0xbebd3942	-0.36957747
92	0x3f917ce1	1.1366235
93	0xbf6cedd5	-0.925504
94	0x3fa2b837	1.2712468
95	0xbf0151f8	-0.505157
96	0x3f576d17	0.8415083
97	0x3cf24285	0.029572735
98	0x3e837126	0.25672263
99	0x3e9f136d	0.31069508

bias f4 [10]
0	0x3f0857e4	0.5325911
1	0x3de7cf75	0.11318866
2	0x3ecc9908	0.39960504
3	0x3f3781b7	0.71682304
4	0xbe45b6e4	-0.19308048
5	0xbf123838	-0.57117033
6	0xbdca9fe9	-0.09893782
7	0xbe250a79	-0.16117276
8	0x3e012181	0.12610437
9	0xbe263d45	-0.1623431

weight f4 [10, 10]
0	0x3fadf4a0	1.3590279
1	0x3ed924d6	0.42410916
2	0x3f773368	0.96562815
3	0x3fd4f74b	1.6637968
4	0x3eed27fc	0.46319568
5	0xbfccad23	-1.5990337
6	0xbe8153ae	-0.25259155
7	0xbf268920	-0.65052986
8	0xbea3b3e4	-0.31973183
9	0xbf4316d1	-0.7620669
10	0xbfbc730f	-1.4722613
11	0xbf2204bc	-0.63288474
12	0xbf134d11	-0.5753947
13	0xbfdc0b84	-1.7191014
14	0xbe39e008	-0.18151867
15	0x3fee1552	1.8600256
16	0xbe5d4825	-0.21609552
17	0x3f320c70	0.6955023
18	0x3f14a759	0.5806785
19	0x3f2ce6f8	0.6753993
20	0xbf1f9fbf	-0.6235313
21	0x3d4aec60	0.04954183
22	0xbebacc9b	-0.36484227
23	0xbf4702e0	-0.7773876
24	0xbe3a2e8a	-0.18181816
25	0x3f39b0d4	0.72535443
26	0x3d193160	0.037400603
27	0x3dbc496f	0.09193694
28	0x3e615267	0.2200409
29	0x3eacbe86	0.33739108
30	0xbfa71498	-1.305316
31	0xbf069770	-0.52574825
32	0xbf706ff5	-0.9392083
33	0xbf86a08b	-1.0517744
34	0xbe3bbf24	-0.18334633
35	0x3fd32915	1.6496912
36	0xbe8d1dd6	-0.27561826
37	0x3edea5f0	0.43485975
38	0x3f34ee62	0.70676243
39	0x3f5c8766	0.861441
40	0x3f8a72c9	1.081628
41	0x3e852264	0.260028
42	0x3f7e540d	0.99347
43	0x3fd57d0b	1.6678785
44	0x3eefb95d	0.46821108
45	0xbff81ebe	-1.9384382
46	0x3cbf3a9c	0.023343377
47	0xbefac9dd	-0.48982134
48	0xbf5af153	-0.8552448
49	0xbf74b70f	-0.95591825
50	0xbd9419f8	-0.07231516
51	0xbe5a5d57	-0.21324669
52	0x3dd8a1f5	0.10577766
53	0xbea3b30d	-0.31972542
54	0xbdac2efd	-0.084074
55	0x3eaa9627	0.33317682
56	0x3d93a75d	0.072096564
57	0xbe1eeb33	-0.15519409
58	0x3d80bf0b	0.062864386
59	0xbd0ca243	-0.034334432
60	0x3ffef896	1.9919612
61	0x3f4fd678	0.8118663
62	0x3fad42f3	1.3536056
63	0x401b9695	2.4310658
64	0x3e434a7f	0.19071387
65	0xc01adffb	-2.4199207
66	0xbe83f584	-0.2577325
67	0xbf59f1ba	-0.8513447
68	0xbf16a377	-0.5884318
69	0xbfae0a62	-1.3596919
70	0x3f419373	0.75615615
71	0x3eddbee2	0.43309695
72	0x3ee0cb80	0.43905258
73	0x3f250020	0.64453316
74	0x3d3b3915	0.045708735
75	0xbf2fa4cf	-0.6861085
76	0xbe69f29b	-0.22846453
77	0xbf1f82f2	-0.6230918
78	0xbef25d0e	-0.4733662
79	0xbeaf820d	-0.34278908
80	0xbff6c2ae	-1.9278162
81	0xbebbef2e	-0.36705917
82	0xbfa97f4d	-1.3241974
83	0xc012a359	-2.29122
84	0xbedc1bbf	-0.4298992
85	0x402138ae	2.5190845
86	0xbe8b652b	-0.27225623
87	0x3f8af957	1.0857342
88	0x3f750017	0.9570326
89	0x3f895d89	1.073167
90	0xbf04b9eb	-0.5184619
91	0xbe0d9e2c	-0.13829869
92	0xbde817dc	-0.11332676
93	0xbf76f3dd	-0.96465856
94	0xbe88124d	-0.26576462
95	0x3ef5587f	0.4791908
96	0xbe0c54b4	-0.13704187
97	0x3dac86fa	0.08424182
98	0x3ec12522	0.37723643
99	0x3dc677fe	0.096908554

bias f4 [10]
0	0xbec548e0	-0.38532162
1	0x3e4fda10	0.20298028
2	0xbd133c37	-0.035946097
3	0x3c93da11	0.018048318
4	0x3e27f705	0.16402824
5	0x3e08e15c	0.13367218
6	0xbeb0c72b	-0.34526953
7	0x3d900efb	0.07034107
8	0x3dd13b50	0.10216391
9	0x3e5c9ef7	0.21545015

weight f4 [1, 10]
0	0xc04f1e23	-3.2362144
1	0x40585799	3.3803465
2	0x3fa35fd5	1.2763621
3	0x4039e4ce	2.9045901
4	0xc05b23c9	-3.4240592
5	0x3eacbcc0	0.33737755
6	0xc0a481c2	-5.1408396
7	0xbfc2881c	-1.5197787
8	0x40a0a505	5.020144
9	0x3f93cd39	1.1547004
