aip/mymodel_7000.pt (torch, 4943 bytes, 7 tensors)

weight f4 [10, 2]
0	0xc0824a5a	-4.071576
1	0xc077c0be	-3.871139
2	0x3eb8fd35	0.36130682
3	0x3f0cc05d	0.54981023
4	0x400ee64c	2.2328062
5	0xc083a472	-4.113824
6	0xbf3c4364	-0.7354033
7	0x402ac16c	2.6680555
8	0xc0a37ede	-5.1092367
9	0x405e4bed	3.4733841
10	0x3f48dc14	0.7846081
11	0x3f59f5de	0.8514079
12	0x4058285b	3.377463
13	0x404a5ba7	3.161844
14	0xbf0215c6	-0.50814474
15	0xbed6f995	-0.4198729
16	0xbf5e9237	-0.86941856
17	0x3e0b323f	0.13593386
18	0xbf58c003	-0.84667987
19	0xbefe0fb4	-0.49621356

bias f4 [10]
0	0x3f516c5a	0.81805956
1	0x3de9584c	0.113937944
2	0xbf603375	-0.8757852
3	0x3db7334e	0.089453325
4	0xbfc3dd17	-1.5301846
5	0xbf2c34a5	-0.6726783
6	0xbe9015be	-0.28141588
7	0xbe489cb6	-0.1959103
8	0x3de0ddf7	0.109798364
9	0x3d369093	0.04457147

weight f4 [10, 10]
0	0x3fd43b6f	1.6580638
1	0x3f374165	0.7158416
2	0xbfde59f8	-1.7371206
3	0x3f9e74db	1.2379411
4	0xc02d4662	-2.7074208
5	0x3f1772aa	0.5915934
6	0xbfb165c2	-1.3859179
7	0xbe0d940c	-0.13826007
8	0x3e6d4b5a	0.23173276
9	0xbedcfc2f	-0.4316115
10	0x3f1cb3f1	0.6121207
11	0x3b9846fa	0.004647133
12	0xbf311b61	-0.691824
13	0x3f111912	0.5667888
14	0xbf628537	-0.8848452
15	0x3cd9214b	0.026505133
16	0xbecb130e	-0.39662975
17	0x3d968e41	0.073513515
18	0xbec0ebc8	-0.37679887
19	0xbe69fcde	-0.22850367
20	0x3fce05be	1.6095502
21	0x3e3ca09f	0.18420647
22	0xbf8b36f9	-1.0876151
23	0x3f159d73	0.58443373
24	0xbfd2ada2	-1.6459239
25	0x3f0faa4e	0.5611924
26	0xbf50b763	-0.81529826
27	0xbeba29d2	-0.3636003
28	0x3e2542e1	0.16138794
29	0xbe8b467d	-0.27202216
30	0x40179f82	2.3691106
31	0x3efd48fe	0.4946975
32	0xc0113c7c	-2.2693167
33	0x3fb22665	1.3917967
34	0xc0397b05	-2.8981335
35	0x3f28c0ed	0.6591938
36	0xbfc1b1c3	-1.5132374
37	0xbd085db8	-0.033292502
38	0x3ddcffe0	0.10790992
39	0xbe873022	-0.2640391
40	0x3ec161d7	0.37769958
41	0xbe6b0779	-0.2295207
42	0xbf179026	-0.5920433
43	0x3da046fd	0.0782604
44	0xbf194cb9	-0.59882694
45	0x3e1d408f	0.15356658
46	0xbebe5835	-0.37176672
47	0x3e744281	0.23853494
48	0xbe948700	-0.29009247
49	0x3e28eb81	0.16496088
50	0xc0118350	-2.2736397
51	0xbe8729f1	-0.26399186
52	0x401b2407	2.424074
53	0xbfd32ae2	-1.6497462
54	0x40509e98	3.2596798
55	0xbf771157	-0.96510834
56	0x3f8865c0	1.0656052
57	0x3ecff6bd	0.40617934
58	0x3eba663a	0.36406118
59	0x3e894b47	0.26815245
60	0x3e56fb78	0.20994365
61	0x3dc252b1	0.094884284
62	0xbdc7cf25	-0.097563066
63	0xbe69131f	-0.227612
64	0x3dcba1f6	0.09943001
65	0x3dab17f3	0.08354177
66	0xbe82c08d	-0.2553753
67	0xbad4f3e2	-0.0016246999
68	0xbeb3b849	-0.35101536
69	0xbe6b4271	-0.22974564
70	0xbed55e79	-0.4167364
71	0xbe18e713	-0.14931898
72	0x3f80b77e	1.0055997
73	0xbf3dd2a0	-0.74149513
74	0x3fa847ba	1.3146889
75	0xbe5831b0	-0.21112704
76	0x3eaab1f7	0.333389
77	0x3e4f7d13	0.20262556
78	0x3e8260a4	0.25464356
79	0x3d644570	0.055730283
80	0xbf4e3eb6	-0.8056444
81	0xbedca863	-0.4309722
82	0x3f4cfb7b	0.8007123
83	0xbf2eda24	-0.68301606
84	0x3f8e3d42	1.1112444
85	0xbe3cf037	-0.1845101
86	0x3e97ace3	0.2962409
87	0xbcc071e0	-0.0234918
88	0x3e17e9d6	0.14835295
89	0x3ecf0624	0.40434372
90	0xbf99dc91	-1.2020437
91	0xbebec45f	-0.37259194
92	0x3f930fbc	1.1489177
93	0xbf6ebf99	-0.93261105
94	0x3fa55a4d	1.2918183
95	0xbf02a1ba	-0.51028025
96	0x3f588a22	0.84585774
97	0x3cffbb30	0.031217188
98	0x3e848e31	0.25889733
99	0x3ea060d1	0.31323865

bias f4 [10]
0	0x3f08ceb1	0.53440386
1	0x3dee65e0	0.11640525
2	0x3ecdd134	0.40198672
3	0x3f37f42f	0.7185697
4	0xbe4329bd	-0.1905889
5	0xbf12e188	-0.57375383
6	0xbdcb0eec	-0.099149555
7	0xbe262cc5	-0.16228016
8	0x3e00ac36	0.12565693
9	0xbe27beba	-0.1638135

weight f4 [10, 10]
0	0x3fb0575f	1.3776664
1	0x3edc8118	0.4306724
2	0x3f7a6386	0.9780811
3	0x3fd7a782	1.6847994
4	0x3eef0f14	0.4669119
5	0xbfcfbbf6	-1.6229236
6	0xbe81510f	-0.25257155
7	0xbf293011	-0.6608897
8	0xbea8b216	-0.3294837
9	0xbf4660a0	-0.7749119
10	0xbfbecd84	-1.4906468
11	0xbf23ad34	-0.6393616
12	0xbf1673ea	-0.5877062
13	0xbfdeb2e4	-1.7398343
14	0xbe3da5e1	-0.18520309
15	0x3ff11843	1.8835529
16	0xbe5d5508	-0.21614468
17	0x3f34a6ea	0.7056719
18	0x3f171b8d	0.59026414
19	0x3f3023f6	0.6880487
20	0xbf228c1a	-0.6349503
21	0x3d3c5e81	0.045988563
22	0xbebe9806	-0.3722536
23	0xbf4a5911	-0.79042155
24	0xbe3c1f6c	-0.18371361
25	0x3f3dfc7e	0.742134
26	0x3d1bcefa	0.038039185
27	0x3dcc450a	0.09974106
28	0x3e68ef2a	0.22747484
29	0x3eb19f80	0.34692
30	0xbfa96b44	-1.323586
31	0xbf083993	-0.5321285
32	0xbf738ff4	-0.9514153
33	0xbf894497	-1.0724057
34	0xbe3f72c5	-0.18696125
35	0x3fd62fea	1.6733372
36	0xbe8d1dae	-0.27561706
37	0x3ee3e9cf	0.4451432
38	0x3f376a92	0.7164699
39	0x3f5fcd40	0.8742256
40	0x3f8cd409	1.1002208
41	0x3e8885c7	0.26664564
42	0x3f80c274	1.0059342
43	0x3fd82a92	1.6887991
44	0x3ef1a779	0.47198084
45	0xbffb2089	-1.9619304
46	0x3cc06bf7	0.023488982
47	0xbefff51c	-0.4999169
48	0xbf5d5fa0	-0.8647404
49	0xbf77ed48	-0.9684644
50	0xbd9c4a83	-0.076313995
51	0xbe5bf179	-0.21478833
52	0x3dd2ef5e	0.10299562
53	0xbea60003	-0.32421884
54	0xbdae1a9c	-0.08501169
55	0x3eacdf05	0.337639
56	0x3d9331a9	0.07187206
57	0xbe1d269f	-0.15346764
58	0x3d84165e	0.06449579
59	0xbd0354f6	-0.032063447
60	0x400076d3	2.0072525
61	0x3f51316c	0.81716037
62	0x3fae8d84	1.3636937
63	0x401cb039	2.4482558
64	0x3e4647ba	0.19363299
65	0xc01c2968	-2.4400272
66	0xbe840935	-0.25788274
67	0xbf5c3aae	-0.8602704
68	0xbf18c74e	-0.59679115
69	0xbfaf6e5f	-1.3705558
70	0x3f45916a	0.7717501
71	0x3ee0e8ed	0.43927708
72	0x3ee664d2	0.44998795
73	0x3f2978ee	0.6620015
74	0x3d4ac8d2	0.049507923
75	0xbf33e5f3	-0.7027275
76	0xbe68cc9c	-0.22734302
77	0xbf2118d4	-0.6292851
78	0xbef558fb	-0.4791945
79	0xbeb3bc3a	-0.35104543
80	0xbff8bc66	-1.9432495
81	0xbebeb5c3	-0.37248048
82	0xbfaacf00	-1.3344421
83	0xc013bfbf	-2.3085783
84	0xbedda84b	-0.4329246
85	0x40227f0e	2.5390048
86	0xbe8b652b	-0.27225623
87	0x3f8c1734	1.0944581
88	0x3f7717b9	0.9652057
89	0x3f8abc1e	1.0838659
90	0xbf077831	-0.5291777
91	0xbe111736	-0.1416901
92	0xbdf66a11	-0.12031949
93	0xbf7a14c3	-0.9768793
94	0xbe890246	-0.26759547
95	0x3efd4530	0.49466848
96	0xbe0bce4e	-0.13652918
97	0x3dbb218b	0.09137257
98	0x3ec49f3f	0.38402745
99	0x3dd85e52	0.10564865

bias f4 [10]
0	0xbec60107	-0.3867266
1	0x3e513ed3	0.20434122
2	0xbd078780	-0.033088207
3	0x3ca0f8b9	0.01964985
4	0x3e26d8b4	0.16293603
5	0x3e08963c	0.1333856
6	0xbeb1943e	-0.34683412
7	0x3d93d132	0.07217635
8	0x3dd3c6a7	0.10340624
9	0x3e5f1dd9	0.2178873

weight f4 [1, 10]
0	0xc0536666	-3.303125
1	0x405c89cf	3.4459112
2	0x3fa760fc	1.3076472
3	0x403dbcd5	2.9646504
4	0xc05f90e0	-3.4932175
5	0x3eb08605	0.3447725
6	0xc0a72125	-5.222796
7	0xbfc79eb5	-1.5595309
8	0x40a3266a	5.098439
9	0x3f9759e6	1.182431
