aip/mymodel_0000.pt (torch, 4943 bytes, 7 tensors)

weight f4 [10, 2]
0	0xc08113ff	-4.033691
1	0xc074899b	-3.8208988
2	0x3eafcba3	0.3433505
3	0x3f088baa	0.5333811
4	0x4009b56e	2.1516986
5	0xc080b033	-4.0215087
6	0xbf30c44f	-0.69049543
7	0x4025d3b8	2.5910473
8	0xc0a08e2b	-5.0173545
9	0x4058b9bd	3.3863366
10	0x3f422f11	0.7585307
11	0x3f552498	0.8325896
12	0x40568115	3.3516285
13	0x4048202a	3.1269631
14	0xbf0068d7	-0.5015997
15	0xbed487ef	-0.4150996
16	0xbf5c8f33	-0.86156005
17	0x3e0f5d89	0.14000525
18	0xbf562b51	-0.83659846
19	0xbefd1973	-0.4943348

bias f4 [10]
0	0x3f46f8a7	0.77723163
1	0x3dfaf9cb	0.122546755
2	0xbf560546	-0.83601797
3	0x3d9d3657	0.0767638
4	0xbfbf6c3a	-1.4954903
5	0xbf250622	-0.6446248
6	0xbe8199c0	-0.25312614
7	0xbe4c75e8	-0.19966853
8	0x3de508f4	0.11183348
9	0x3d02fcf1	0.031979505

weight f4 [10, 10]
0	0x3fcfe7d9	1.6242629
1	0x3f33a32a	0.70170844
2	0xbfd601fc	-1.6719356
3	0x3f997408	1.1988535
4	0xc027ea19	-2.6236632
5	0x3f1151ce	0.5676545
6	0xbfaefda8	-1.367116
7	0xbe054175	-0.13013251
8	0x3e7577a4	0.2397142
9	0xbed6f140	-0.41980934
10	0x3f189f0d	0.5961769
11	0xbbbbacad	-0.0057273717
12	0xbf2b7be5	-0.66985923
13	0x3f0c23bc	0.54742026
14	0xbf5a0bfc	-0.85174537
15	0x3c577b1e	0.013151912
16	0xbeca403b	-0.3950213
17	0x3d9733a2	0.07382895
18	0xbec0f008	-0.3768313
19	0xbe683ae5	-0.22678716
20	0x3fcaf579	1.5856162
21	0x3e2f019d	0.17090459
22	0xbf8524a0	-1.0401802
23	0x3f0d6d54	0.55244946
24	0xbfcab5bc	-1.5836711
25	0x3f0a5c51	0.54047114
26	0xbf4e4d28	-0.8058648
27	0xbeb76ad2	-0.35823685
28	0x3e2a6225	0.16639002
29	0xbe8700ec	-0.2636789
30	0x4015d21f	2.3409498
31	0x3ef489dd	0.4776143
32	0xc00d0954	-2.2036943
33	0x3fad0541	1.3517228
34	0xc032d681	-2.7943423
35	0x3f20f63a	0.6287571
36	0xbfbfe64e	-1.4992158
37	0xbcaeab0f	-0.021321801
38	0x3df9de23	0.12200572
39	0xbe7c20b0	-0.24621844
40	0x3ebc1b82	0.36739737
41	0xbe7257cb	-0.23666303
42	0xbf14427c	-0.5791395
43	0x3d862707	0.065504126
44	0xbf147a87	-0.5799946
45	0x3e146953	0.14493303
46	0xbebe5835	-0.37176672
47	0x3e73ba6b	0.23801582
48	0xbe95046e	-0.29104942
49	0x3e29232f	0.16517328
50	0xc00ebdd0	-2.2303352
51	0xbe7eeab0	-0.24894214
52	0x4016e8bf	2.3579557
53	0xbfce31bf	-1.6108931
54	0x404a7917	3.1636407
55	0xbf70ca55	-0.94058734
56	0x3f855a56	1.0418193
57	0x3ecc6c88	0.39926553
58	0x3eb6565b	0.3561276
59	0x3e83e17d	0.2575797
60	0x3e56642d	0.20936652
61	0x3dc2f445	0.09519247
62	0xbdc528d3	-0.09626927
63	0xbe691423	-0.22761588
64	0x3dcf13b0	0.10111177
65	0x3dab4725	0.08363179
66	0xbe822ed3	-0.2542635
67	0xbaa3878f	-0.0012476313
68	0xbeb37b30	-0.35054922
69	0xbe6acfc8	-0.22930825
70	0xbeca6fb5	-0.3953835
71	0xbe11cfeb	-0.1423947
72	0x3f792737	0.9732546
73	0xbf3923fa	-0.7232052
74	0x3fa21dc1	1.266533
75	0xbe4c402f	-0.19946359
76	0x3ea455d6	0.32096738
77	0x3e4bc258	0.19898355
78	0x3e8025cf	0.25028846
79	0x3d4dd3fa	0.050250985
80	0xbf48c81d	-0.7843035
81	0xbed9c478	-0.42532706
82	0x3f445246	0.7668804
83	0xbf2a706b	-0.66577786
84	0x3f87db23	1.061375
85	0xbe31f088	-0.17376912
86	0x3e9035ea	0.28166133
87	0xbce5a09e	-0.02803069
88	0x3e124ed8	0.14287889
89	0x3ecbb8e1	0.3978949
90	0xbf96a896	-1.1770198
91	0xbeb9f41d	-0.36319056
92	0x3f8e17e2	1.1101038
93	0xbf690b58	-0.91032934
94	0x3f9d0e54	1.2269998
95	0xbefd0c6d	-0.49423543
96	0x3f55004d	0.83203584
97	0x3cd4b2f1	0.025964232
98	0x3e810754	0.25200903
99	0x3e9c3d55	0.30515543

bias f4 [10]
0	0x3f07530b	0.5286109
1	0x3dd95e04	0.10613635
2	0x3ec9c581	0.39408496
3	0x3f368532	0.7129699
4	0xbe4b2391	-0.19837786
5	0xbf10c4d0	-0.5655031
6	0xbdc99eac	-0.098447174
7	0xbe22baf8	-0.15891635
8	0x3e01d69b	0.12679522
9	0xbe2323f6	-0.15931687

weight f4 [10, 10]
0	0x3fa8d26c	1.3189216
1	0x3ed1f567	0.4100754
2	0x3f705e5f	0.93894
3	0x3fcf2bf9	1.6185294
4	0x3ee9160a	0.45524627
5	0xbfc61533	-1.547522
6	0xbe816381	-0.25271228
7	0xbf20df66	-0.6284088
8	0xbe990f4d	-0.29894486
9	0xbf3c0f82	-0.73461163
10	0xbfb75e9b	-1.4325746
11	0xbf1e77c9	-0.6190153
12	0xbf0c87ad	-0.54894525
13	0xbfd64ec1	-1.6742784
14	0xbe31cd6a	-0.17363515
15	0x3fe78e6f	1.8090342
16	0xbe5d29f6	-0.21598038
17	0x3f2c73d7	0.6736426
18	0x3f0f62fd	0.5601042
19	0x3f25f04c	0.6481979
20	0xbf19a439	-0.6001621
21	0x3d682f5e	0.056685798
22	0xbeb3174b	-0.3497871
23	0xbf402a34	-0.75064397
24	0xbe364f4c	-0.17803687
25	0x3f30c7fd	0.6905516
26	0x3d1360ab	0.03598086
27	0x3d9b369c	0.07578775
28	0x3e5197b8	0.20468032
29	0x3ea2aa45	0.3177053
30	0xbfa2166c	-1.2663093
31	0xbf03243a	-0.5122715
32	0xbf69cd1d	-0.91328603
33	0xbf80fa76	-1.0076435
34	0xbe33f158	-0.17572534
35	0x3fcca6b6	1.5988376
36	0xbe8d2e44	-0.2757436
37	0x3ed364c3	0.41287813
38	0x3f2fa07e	0.68604267
39	0x3f5588ed	0.8341206
40	0x3f854e3d	1.0414501
41	0x3e7bb59b	0.24580996
42	0x3f777578	0.9666362
43	0x3fcfb136	1.6225955
44	0x3eeb9274	0.46010172
45	0xbff19d59	-1.8876144
46	0x3cbc5195	0.02298812
47	0xbeefb88d	-0.4682049
48	0xbf55bf73	-0.83495253
49	0xbf6dd466	-0.9290222
50	0xbd83664c	-0.06415996
51	0xbe572d21	-0.21013309
52	0x3de43182	0.11142255
53	0xbe9effd1	-0.31054547
54	0xbda84fe7	-0.08218365
55	0x3ea5e4a3	0.32400998
56	0x3d949281	0.07254506
57	0xbe228756	-0.15871939
58	0x3d73deb3	0.059538554
59	0xbd1f9d1c	-0.03896819
60	0x3ffaa35a	1.9581101
61	0x3f4cdccd	0.80024415
62	0x3faa6ab9	1.3313819
63	0x40192622	2.3929524
64	0x3e3cbcab	0.18431346
65	0xc018037d	-2.375213
66	0xbe83ca5d	-0.25740328
67	0xbf54e76a	-0.8316561
68	0xbf11ed1c	-0.57002425
69	0xbfaaf929	-1.3357288
70	0x3f3942f9	0.7236782
71	0x3ed724c9	0.42020252
72	0x3ed52544	0.41629994
73	0x3f1bae1a	0.6081253
74	0x3d1aa098	0.03775081
75	0xbf26e53b	-0.6519353
76	0xbe6c85fc	-0.23097986
77	0xbf1c5501	-0.61067206
78	0xbeec6537	-0.4617097
79	0xbea6f81c	-0.32611167
80	0xbff2639f	-1.8936652
81	0xbeb5d6ee	-0.3551554
82	0xbfa69c16	-1.3016384
83	0xc0102d3d	-2.2527611
84	0xbed8b5a2	-0.42326075
85	0x401e63d0	2.474842
86	0xbe8b6b1d	-0.27230158
87	0x3f88837f	1.066513
88	0x3f7065db	0.9390542
89	0x3f8658d5	1.0495859
90	0xbefe36a0	-0.4965105
91	0xbe069943	-0.13144402
92	0xbdcaf0c9	-0.099092074
93	0xbf7087d4	-0.9395726
94	0xbe862f2a	-0.26207858
95	0x3ee4f678	0.4471929
96	0xbe0d78aa	-0.13815561
97	0x3d8e7810	0.06956494
98	0x3eba000a	0.36328155
99	0x3da1a941	0.07893611

bias f4 [10]
0	0xbec3c4de	-0.38236135
1	0x3e4ccc0d	0.19999714
2	0xbd2c89d3	-0.042123627
3	0x3c6c8430	0.014435813
4	0x3e2a471c	0.16628689
5	0x3e097139	0.13422097
6	0xbeaefbb7	-0.34176418
7	0x3d873086	0.06601052
8	0x3dcb8eb3	0.09939327
9	0x3e575277	0.21027552

weight f4 [1, 10]
0	0xc0462836	-3.0962043
1	0x404f8305	3.2423718
2	0x3f9b2634	1.2121034
3	0x4031d8f8	2.7788677
4	0xc051dbcd	-3.2790406
5	0x3ea4f540	0.3221836
6	0xc09ef041	-4.966828
7	0xbfb81e72	-1.4384291
8	0x409b4e9b	4.8533454
9	0x3f8c875d	1.097881
