aip/mymodel_2000.pt (torch, 4943 bytes, 7 tensors)

weight f4 [10, 2]
-4.0488205 -3.8409638 0.3505201 0.5400299 2.1840613 -4.0586047 -0.7081902 2.6217659
-5.054216 3.4212153 0.7689026 0.84024036 3.3619494 3.1408901 -0.5041832 -0.41702482
-0.86459005 0.13842157 -0.8405596 -0.49512625
00000000: f08f 81c0 5ad2 75c0 5f77 b33e 663f 0a3f
00000010: a9c7 0b40 17e0 81c0 f44b 35bf 03cb 2740
00000020: 23bc a1c0 31f5 5a40 cdd6 443f fe19 573f
00000030: 2e2a 5740 5804 4940 2612 01bf 4784 d5be
00000040: c655 5dbf 62be 0d3e ea2e 57bf 3081 fdbe

bias f4 [10]
0.7937547 0.119188875 -0.851814 0.08157134 -1.5092609 -0.65558845 -0.26446477 -0.19819947
0.11103767 0.0369536
00000000: 8233 4b3f 4c19 f43d 7b10 5abf e00e a73d
00000010: 762f c1bf a5d4 27bf ed67 87be cdf4 4abe
00000020: b867 e33d a85c 173d

weight f4 [10, 10]
1.637765 0.7073517 -1.6979603 1.2144415 -2.6570551 0.57720417 -1.3746079 -0.13338026
0.2365539 -0.42452058 0.6024844 -0.0015863458 -0.6785347 0.5551184 -0.86480933 0.018467598
-0.39559755 0.073718525 -0.37679833 -0.22745283 1.5951717 0.17627227 -1.0590128 0.56524056
-1.6083797 0.5487723 -0.8095068 -0.3603302 0.16447298 -0.26695377 2.352247 0.48443827
-2.2299595 1.3677427 -2.8358648 0.64091045 -1.5048282 -0.026113572 0.11638874 -0.25334558
0.37146515 -0.23384842 -0.58423686 0.070530854 -0.587425 0.14833759 -0.37176672 0.23821755
-0.2906665 0.16508245 -2.2477055 -0.25496754 2.3844473 -1.6264359 3.2020657 -0.9503943
1.0513533 0.4020395 0.35927767 0.26181233 0.20960367 0.095063955 -0.09679698 -0.22761215
0.10042636 0.083591275 -0.25472263 -0.0014024882 -0.3507438 -0.2294847 -0.4038212 -0.14511412
0.986089 -0.7304202 1.2856156 -0.20406602 0.32591006 0.20045216 0.25202996 0.052448746
-0.7927257 -0.42749923 0.7802894 -0.67252004 1.0811183 -0.17796312 0.2875039 -0.026195092
0.14508103 0.40048543 -1.1869519 -0.36688775 1.1255404 -0.91913617 1.2527336 -0.50057065
0.83756506 0.028075345 0.25475663 0.30838853
00000000: 49a2 d13f 0015 353f c356 d9bf d272 9b3f
00000010: 310d 2ac0 a7c3 133f 27f3 afbf d694 08be
00000020: 303b 723e c35a d9be 6b3c 1a3f efec cfba
00000030: 73b4 2dbf 3d1c 0e3f 2564 5dbf 5c49 973c
00000040: c38b cabe bdf9 963d b6eb c0be 65e9 68be
00000050: 962e cc3f b880 343e bb8d 87bf 9bb3 103f
00000060: 63df cdbf 577c 0c3f d63b 4fbf 337d b8be
00000070: 9b6b 283e 2aae 88be 378b 1640 4b08 f83e
00000080: a8b7 0ec0 3112 af3f cf7e 35c0 b512 243f
00000090: 369e c0bf 21ec d5bc 385d ee3d 83b6 81be
000000a0: ae30 be3e f675 6fbe 8c90 15bf 7b72 903d
000000b0: 7c61 16bf cfe5 173e 3558 bebe 4def 733e
000000c0: 3dd2 94be 600b 293e 68da 0fc0 1b8b 82be
000000d0: c99a 1840 0d2f d0bf a5ee 4c40 0a4d 73bf
000000e0: bf92 863f 1fd8 cd3e 3ef3 b73e 440c 863e
000000f0: 58a2 563e e4b0 c23d 7f3d c6bd 2913 69be
00000100: 56ac cd3d e731 ab3d 016b 82be b2d3 b7ba
00000110: b194 b3be 0afe 6abe a7c1 cebe cc98 14be
00000120: 5470 7c3f d1fc 3abf 0d8f a43f aff6 50be
00000130: afdd a63e 5543 4d3e 120a 813e 7fd4 563d
00000140: 12f0 4abf 2ee1 dabe 0cc1 473f 462a 2cbf
00000150: 1662 8a3f f73b 36be b633 933e 1797 d6bc
00000160: 1f90 143e 6d0c cd3e 0aee 97bf b6d8 bbbe
00000170: b511 903f 824c 6bbf 9359 a03f 6625 00bf
00000180: aa6a 563f 44fe e53c 766f 823e 1ae5 9d3e

bias f4 [10]
0.53094125 0.110259466 0.39736527 0.71522766 -0.19530699 -0.56881773 -0.098738104 -0.1602068
0.12643953 -0.16105244
00000000: c4eb 073f b7cf e13d 7673 cb3e 2919 373f
00000010: 8efe 47be 0a9e 11bf 3437 cabd 400d 24be
00000020: 5d79 013e eeea 24be

weight f4 [10, 10]
1.3422477 0.4182235 0.95444477 1.6448698 0.45986283 -1.5774962 -0.25264865 -0.64124566
-0.31100106 -0.7505477 -1.4556755 -0.6270692 -0.5643209 -1.7003815 -0.17821272 1.83875
-0.2160415 0.6863537 0.5720619 0.664016 -0.6135604 0.05261109 -0.35839975 -0.76598775
-0.18018848 0.71058226 0.036813594 0.08507586 0.21351102 0.32902205 -1.288943 -0.52006704
-0.928304 -1.0332656 -0.18013097 1.62841 -0.27566615 0.42563975 0.6980662 0.8499802
1.0648472 0.25407666 0.9822461 1.648977 0.46481818 -1.9172169 0.023202369 -0.48075807
-0.84673035 -0.94464654 -0.06883138 -0.21191144 0.10819393 -0.31580657 -0.08326283 0.3292724
0.072290085 -0.15669915 0.061443474 -0.036313478 1.9779584 0.8070431 1.3443924 2.4153097
0.18805654 -2.4014568 -0.2576024 -0.8431903 -0.58080184 -1.3497666 0.74239177 0.4276355
0.42940566 0.6291076 0.04234357 -0.6715535 -0.22950095 -0.6177497 -0.46834683 -0.33563578
-1.9136887 -0.36211935 -1.3148485 -2.2753198 -0.4271439 2.5008137 -0.272258 1.07777
0.94957787 1.0633956 -0.50909936 -0.13535991 -0.10724084 -0.95396864 -0.26418096 0.46559224
-0.13750711 0.07799344 0.3712918 0.089254424
00000000: c6ce ab3f 6421 d63e 7e56 743f 188b d23f
00000010: 2473 eb3e 65eb c9bf 2a5b 81be ad28 24bf
00000020: 883b 9fbe e523 40bf 9353 babf 9b87 20bf
00000030: 5677 10bf 1aa6 d9bf 657d 36be 295c eb3f
00000040: fc39 5dbe e0b4 2f3f a672 123f f4fc 293f
00000050: 4b12 1dbf ba7e 573d 2c80 b7be c617 44bf
00000060: 5483 38be b8e8 353f dac9 163d 413c ae3d
00000070: a2a2 5a3e 9475 a83e 16fc a4bf 1d23 05bf
00000080: 55a5 6dbf 0c42 84bf 4174 38be bd6f d03f
00000090: 1d24 8dbe 74ed d93e 77b4 323f 4d98 593f
000000a0: ea4c 883f 5616 823e 7b74 7b3f ae11 d33f
000000b0: a6fc ed3e 5d67 f5bf e512 be3c ec25 f6be
000000c0: 52c3 58bf 5bd4 71bf 77f7 8cbd 50ff 58be
000000d0: c794 dd3d 66b1 a1be b485 aabd 6496 a83e
000000e0: d30c 943d be75 20be 27ac 7b3d 71bd 14bd
000000f0: be2d fd3f 609a 4e3f 0d15 ac3f 6f94 1a40
00000100: e591 403e 78b1 19c0 76e4 83be 52db 57bf
00000110: 6eaf 14bf 27c5 acbf 630d 3e3f 0af3 da3e
00000120: 0fdb db3e 320d 213f 7470 2d3d eeea 2bbf
00000130: 4c02 6bbe d824 1ebf 28cb efbe 74d8 abbe
00000140: c0f3 f4bf b567 b9be f54c a8bf d79e 11c0
00000150: 9bb2 dabe 550d 2040 6765 8bbe 5ef4 893f
00000160: 8917 733f 591d 883f 5654 02bf ca9b 0abe
00000170: 16a1 dbbd 4a37 74bf ba42 87be 1b62 ee3e
00000180: aace 0cbe 06bb 9f3d f519 be3e 06cb b63d

bias f4 [10]
-0.38407046 0.20174183 -0.038527332 0.01656671 0.1649902 0.13391265 -0.34382704 0.06858957
0.10102181 0.2132731
00000000: e2a4 c4be 6995 4e3e d6ce 1dbd e9b6 873c
00000010: 31f3 283e 6620 093e 190a b0be b078 8c3d
00000020: 86e4 ce3d 4364 5a3e

weight f4 [1, 10]
-3.1769955 3.322119 1.2489867 2.8514216 -3.3627734 0.3309069 -5.0676684 -1.4850708
4.9500937 1.1304728
00000000: e553 4bc0 999d 5440 ccde 9f3f b17d 3640
00000010: ae37 57c0 a16c a93e 572a a2c0 cd16 bebf
00000020: 2b67 9e40 55b3 903f
