aip/mymodel_10000.pt (torch, 4943 bytes, 7 tensors)

weight f4 [10, 2]
00000000: c094 82c0 0d84 78c0 a52b bb3e d6b8 0d3f
00000010: b521 1040 a455 84c0 c110 3fbf 7ced 2b40
00000020: d32f a4c0 c89b 5f40 ea74 4a3f b00f 5b3f
00000030: ed8c 5840 5ae3 4a40 ea7d 02bf 108b d7be
00000040: 6014 5fbf 4428 0a3e aa61 59bf b643 febe
-4.080658 -3.8830597 0.36556736 0.5536016 2.2520573 -4.135454 -0.7463494 2.68637
-5.130838 3.4938831 0.79084647 0.8557081 3.3836014 3.1701264 -0.5097338 -0.42098284
-0.87140465 0.13491923 -0.8491465 -0.49661034

bias f4 [10]
00000000: 10d6 533f 3ff6 e43d 00a4 62bf a002 be3d
00000010: d9ed c4bf cffb 2dbf 947e 93be ffa8 47be
00000020: f6d6 df3d b811 433d
0.8274851 0.1117978 -0.88531494 0.092778444 -1.5385085 -0.67962354 -0.2880751 -0.1949806
0.109296724 0.04762432

weight f4 [10, 10]
00000000: b941 d53f 521d 383f e054 e0bf 59a5 9f3f
00000010: d78c 2ec0 d2e7 183f 49f8 b1bf a08c 0fbe
00000020: af52 6b3e 4b6b debe 6cb0 1d3f 95e9 e83b
00000030: d778 32bf e948 123f 3b94 64bf a03b f33c
00000040: ff4f cbbe 405d 963d 6fee c0be 916e 6abe
00000050: e4bf ce3f a8cb 3f3e 2aac 8cbf f28d 173f
00000060: 5b97 d4bf d7ea 103f 5253 51bf f2d7 babe
00000070: 36f3 233e b252 8cbe 510b 1840 cc5b ff3e
00000080: 253a 12c0 885d b33f 080d 3bc0 3f9a 2a3f
00000090: a81d c2bf 13f0 13bd ad1f d63d 6058 89be
000000a0: 89a9 c23e f03e 69be 955d 18bf d5a5 a63d
000000b0: e178 1abf 9a67 1f3e 3558 bebe a865 743e
000000c0: b868 94be c9df 283e 4c2a 12c0 80fb 88be
000000d0: fe22 1c40 e557 d4bf 4612 5240 708d 78bf
000000e0: 011d 893f 9ccb d03e 425f bb3e 5492 8a3e
000000f0: a01e 573e 892f c23d 4369 c8bd 1f13 69be
00000100: 63da ca3d 3b0c ab3d ede1 82be 6cff dfba
00000110: 01c4 b3be e659 6bbe df04 d8be e0a3 1abe
00000120: 2eb6 813f 3ef6 3ebf f2c3 a93f 7918 5bbe
00000130: 6237 ac3e 175b 503e d7e7 823e b68c 693d
00000140: 8a92 4fbf 1a65 ddbe bb11 4f3f bbf1 2fbf
00000150: c4c7 8f3f a1aa 3fbe 326f 993e 9bd9 b7bc
00000160: 3a39 193e 2ecc cf3e 8da1 9abf c8f1 bfbe
00000170: dd3f 943f 5f21 70bf 3258 a73f eda0 03bf
00000180: 6c60 593f 46e8 043d 2465 853e 685b a13e
1.6660682 0.7191974 -1.7525902 1.2472335 -2.7273462 0.5972873 -1.3903896 -0.14018488
0.2298076 -0.43441233 0.61597323 0.0071079233 -0.69715637 0.571425 -0.8928868 0.029691517
-0.3970947 0.07342005 -0.3768191 -0.2289374 1.615231 0.18730032 -1.099004 0.59200966
-1.660869 0.5660834 -0.8176776 -0.36492878 0.16010746 -0.27406842 2.3756907 0.49874723
-2.2847989 1.4012918 -2.9226704 0.6664161 -1.51653 -0.036117624 0.104552604 -0.26825237
0.3801997 -0.22777915 -0.59517795 0.08137099 -0.60340697 0.15566865 -0.37176672 0.23866904
-0.28986144 0.16491617 -2.2838316 -0.2675438 2.4396358 -1.6589323 3.2823653 -0.97090816
1.0711976 0.40780342 0.36596113 0.27064764 0.21007776 0.09481723 -0.09785702 -0.227612
0.09904935 0.08351942 -0.25562993 -0.0017089671 -0.35110477 -0.22983512 -0.42191216 -0.15101576
1.0133722 -0.74594486 1.3262923 -0.21396054 0.33636004 0.20347248 0.25567505 0.057018958
-0.81082976 -0.43241197 0.8088643 -0.68728226 1.1232839 -0.18717434 0.29967648 -0.02244263
0.14963236 0.40585464 -1.2080551 -0.37489152 1.158199 -0.9380092 1.307379 -0.5141743
0.84912753 0.032448076 0.26053727 0.3151505

bias f4 [10]
00000000: 6e27 093f c852 f33d 04b4 ce3e b249 383f
00000010: 5f38 41be 3860 13bf b45f cbbd 5e0e 27be
00000020: 2e46 003e ebe8 28be
0.5357579 0.11881024 0.40371716 0.7198745 -0.1886916 -0.57568693 -0.09930363 -0.16314074
0.12526771 -0.16495101

weight f4 [10, 10]
00000000: dc24 b23f ee0d df3e c5cd 7c3f 2caf d93f
00000010: 8780 f03e f50a d2bf 0f51 81be 2133 2bbf
00000020: dd7c acbe 0edf 48bf 2e94 c0bf 17ef 24bf
00000030: 33d6 18bf e0b2 e0bf 2e82 40be 835c f33f
00000040: c060 5dbe e59e 363f 1af7 183f b696 323f
00000050: 13d2 24bf 3aef 303d bd8e c1be 69f0 4cbf
00000060: 9aa7 3dbe 444d 413f 2abe 1d3d f49e d83d
00000070: 55d2 6e3e 8165 b53e b631 abbf aa78 09bf
00000080: bef0 75bf e844 8bbf b346 42be ac79 d83f
00000090: ae1d 8dbe 93e8 e73e bf4d 393f f348 623f
000000a0: 549f 8e3f 0916 8b3e 30f7 813f 1b2f da3f
000000b0: 581d f33e 8864 fdbf 9c44 c13c d9ef 01bf
000000c0: 7f37 5fbf ec5b 7abf 42ad a2bd 812e 5dbe
000000d0: d27a ce3d b9ca a7be 799c afbd 23a5 ae3e
000000e0: 70d4 923d 17c6 1bbe 71b1 863d 2629 f8bc
000000f0: 4931 0140 1635 523f 9284 af3f a281 1d40
00000100: 4f84 483e 3a1e 1dc0 ed14 84be dbee 5dbf
00000110: 5960 1abf d077 b0bf 12a4 483f 0458 e33e
00000120: dfb4 ea3e cae9 2c3f 9bb9 563d 9032 37bf
00000130: 5ef4 67be 0758 22bf a5b2 f7be bc0b b7be
00000140: c934 fabf e4c8 c0be 5fc9 abbf f792 14c0
00000150: f1d0 debe 4171 2340 2b65 8bbe 61ec 8c3f
00000160: dca7 783f a7c1 8b3f 369a 09bf dacf 13be
00000170: 56cb 00be a982 7cbf 55bf 89be f1b2 013f
00000180: 0969 0bbe e573 c63d e851 c73e 8b40 e63d
1.3917499 0.43565315 0.9875148 1.7006583 0.4697306 -1.6409594 -0.25257155 -0.6687489
-0.33689013 -0.78465354 -1.5045221 -0.6442732 -0.5970184 -1.7554588 -0.1879966 1.9012607
-0.21618938 0.71336204 0.5975205 0.69761217 -0.6438305 0.043196894 -0.37804213 -0.80054337
-0.18520966 0.75508523 0.038511433 0.10577193 0.23322423 0.35429004 -1.3374546 -0.53699744
-0.9607047 -1.0880404 -0.18972282 1.6912131 -0.27561706 0.45294628 0.72384256 0.8839256
1.1142373 0.2716525 1.0153561 1.7045625 0.47483325 -1.9796305 0.023592286 -0.50756603
-0.87194055 -0.9779651 -0.079432026 -0.21599771 0.1008202 -0.32771853 -0.08574767 0.34110364
0.071694255 -0.15212284 0.06576813 -0.030293059 2.0186331 0.8211225 1.3712332 2.4610372
0.19581722 -2.45497 -0.25797215 -0.8669259 -0.60303265 -1.3786564 0.7837535 0.44403088
0.4584112 0.67544234 0.0524231 -0.7156153 -0.22651812 -0.6341557 -0.48378482 -0.3575114
-1.9547359 -0.37653267 -1.3420829 -2.32147 -0.43518785 2.5537875 -0.27225623 1.1009637
0.97131133 1.0918473 -0.5375093 -0.14434758 -0.12577567 -0.9863687 -0.26903787 0.5066367
-0.13614286 0.09690074 0.38929677 0.11242779

bias f4 [10]
00000000: 108d c6be 6c4a 523e 616f fdbc 24a9 aa3c
00000010: bcfc 253e ef59 083e 312c b2be 9f7d 963d
00000020: efa9 d53d f503 613e
-0.38779497 0.20536202 -0.030936899 0.020832606 0.16209692 0.13315557 -0.3479934 0.07348179
0.10432803 0.21974166

weight f4 [1, 10]
00000000: 74b0 56c0 38c0 5f40 087d aa3f 71b0 4040
00000010: 23f6 62c0 0477 b33e c720 a9c0 f593 cbbf
00000020: 530e a540 5f1c 9a3f
-3.3545198 3.496107 1.3319407 3.0107691 -3.546273 0.3505174 -5.285251 -1.5904528
5.1579986 1.2039908
