aip/mymodel_1000.pt (torch, 4943 bytes, 7 tensors)

weight f4 [10, 2]
00000000: 0558 81c0 f43d 75c0 16cf b13e 9a7b 093f
00000010: 35d8 0a40 4057 81c0 df3d 33bf b3e7 2640
00000020: 0834 a1c0 83f3 5940 84a3 433f 2739 563f
00000030: e8dd 5640 559d 4840 76c5 00bf b712 d5be
00000040: e1fa 5cbf ab7b 0e3e 07b9 56bf 2453 fdbe
-4.0419946 -3.8319063 0.34728307 0.53704226 2.1694462 -4.0419006 -0.7001628 2.6078918
-5.0376015 3.4054878 0.7642138 0.8368096 3.357294 3.1346028 -0.503013 -0.4161584
-0.8632031 0.13914363 -0.8387608 -0.49477494

bias f4 [10]
00000000: 0c4d 493f ef3a f73d 273c 58bf 4c86 a23d
00000010: 3d63 c0bf b08d 26bf dcc9 84be 13a4 4bbe
00000020: 9d25 e43d 9920 0e3d
0.7863319 0.120717876 -0.84466785 0.07935771 -1.5030285 -0.6505995 -0.25935256 -0.19886808
0.11139987 0.034699056

weight f4 [10, 10]
00000000: 91da d03f 0f6e 343f b5d5 d7bf 258c 9a3f
00000010: 0b16 29c0 03a9 123f 3484 afbf 8814 07be
00000020: 64b2 733e ef43 d8be 2e81 193f 5e86 62bb
00000030: bbb2 2cbf 0a38 0d3f fbdf 5bbf 659a 833c
00000040: 5968 cabe 1d15 973d 2fec c0be d599 68be
00000050: 41a1 cb3f 1608 323e 8076 86bf 6b39 0f3f
00000060: 0971 ccbf 1187 0b3f a9ce 4ebf 2f00 b8be
00000070: 1552 293e 23eb 87be c937 1640 8a74 f63e
00000080: 86f5 0dc0 4e25 ae3f de4b 34c0 1cab 223f
00000090: 374b c0bf 5137 c4bc c98f f33d 0511 80be
000000a0: 073f bd3e a8c4 70be 20f9 14bf 02c7 8b3d
000000b0: b384 15bf 0d51 163e 3558 bebe 39d7 733e
000000c0: dee8 94be 6016 293e 1d5a 0fc0 e326 81be
000000d0: 14d7 1740 4d49 cfbf 9dd2 4b40 132b 72bf
000000e0: ed05 863f 3c34 cd3e 7f38 b73e 1112 853e
000000f0: 5f86 563e 8cce c23d 83c1 c5bd db13 69be
00000100: 6c4d ce3d ec3a ab3d 3f50 82be e7c1 aeba
00000110: f988 b3be 47e9 6abe 76cc ccbe f154 13be
00000120: c4f3 7a3f 5926 3abf f173 a33f 94d3 4ebe
00000130: e7b8 a53e 2496 4c3e 19a3 803e eec5 523d
00000140: d3f5 49bf d15e dabe 3d33 463f 3b61 2bbf
00000150: 173d 893f 7147 34be 80da 913e d158 ddbc
00000160: 418c 133e 7573 cc3e bd5a 97bf aafc babe
00000170: 022d 8f3f eb46 6abf 11dc 9e3f 53d2 febe
00000180: 30c7 553f 9334 de3c ebcc 813e ed25 9d3e
1.6316701 0.70480436 -1.6862093 1.2074019 -2.6419704 0.5728914 -1.371222 -0.13191426
0.2379852 -0.4223933 0.5996274 -0.0034564952 -0.6746022 0.55163634 -0.8588864 0.016064832
-0.39532736 0.07377074 -0.37680194 -0.22714932 1.5908586 0.17385897 -1.0504913 0.5594699
-1.5971996 0.5450297 -0.8078409 -0.3593764 0.16535218 -0.26546583 2.3471549 0.48135787
-2.2181106 1.3605134 -2.8171306 0.6354234 -1.5022954 -0.023952158 0.11892659 -0.25012985
0.3696215 -0.23512518 -0.58192635 0.06825067 -0.5840561 0.14679356 -0.37176672 0.2381257
-0.29083914 0.16512442 -2.239875 -0.2522498 2.3725023 -1.6194245 3.1847298 -0.94596976
1.0470558 0.40078914 0.3578529 0.25990346 0.20949696 0.09512052 -0.0965605 -0.2276148
0.10073361 0.08360848 -0.25451848 -0.0013332934 -0.3506544 -0.2294055 -0.3999974 -0.14387871
0.98028207 -0.72714764 1.2769758 -0.20197898 0.32367632 0.19979149 0.25124434 0.05145829
-0.78890723 -0.42650464 0.77421933 -0.66945237 1.0721768 -0.17605378 0.28487015 -0.02701989
0.14408971 0.39931837 -1.1824566 -0.36520892 1.118561 -0.9151446 1.2410909 -0.4976984
0.8350706 0.027124679 0.25351653 0.30692998

bias f4 [10]
00000000: 0fa7 073f 7801 de3d 38b4 ca3e 95d6 363f
00000010: a36b 49be 333c 11bf 3ef3 c9bd 2672 23be
00000020: c8a7 013e d41a 24be
0.52989286 0.10840124 0.3959062 0.71421176 -0.19669966 -0.5673248 -0.09860848 -0.15961513
0.1266166 -0.16025859

weight f4 [10, 10]
00000000: f474 aa3f 913d d43e 658a 723f b204 d13f
00000010: 1361 ea3e 2b2f c8bf 125f 81be 61ab 22bf
00000020: 066f 9cbe a34a 3ebf 4bfd b8bf 8398 1fbf
00000030: 40af 0ebf 7923 d8bf bd5d 34be 4ca4 e93f
00000040: 2c32 5dbe ec3b 2e3f e00f 113f de27 283f
00000050: c280 1bbf 0428 5f3d 1a7b b5be 334c 42bf
00000060: ff7f 37be 1c92 333f 2541 153d 8a8e a53d
00000070: 2282 563e 97d0 a53e e7ab a3bf fc3a 04bf
00000080: afe6 6bbf a4c5 82bf 4867 36be 48b9 ce3f
00000090: 0528 8dbe a8f7 d63e 614f 313f 61c1 573f
000000a0: 5af2 863f 012c 803e b3a5 793f 0f8b d13f
000000b0: f5e4 ec3e f5b0 f3bf 7a4d bd3c 983c f3be
000000c0: 8765 57bf a804 70bf cc96 88bd 8a29 58be
000000d0: 309c e03d fe75 a0be 2a82 a9bd 4b5b a73e
000000e0: 664a 943d 0268 21be 2a1a 783d f6b6 19bd
000000f0: 4b09 fc3f b5d1 4d3f 2955 ab3f c5ef 1940
00000100: d6d7 3e3e 59f0 18c0 bed8 83be 4187 56bf
00000110: 8271 13bf 26f6 abbf 9bde 3b3f 4837 d93e
00000120: 33cc d83e c19a 1e3f c7e0 243d 8d9f 29bf
00000130: 57b0 6bbe c34f 1dbf 503b eebe ed9b a9be
00000140: b7cc f3bf 9acc b7be 1b8a a7bf b9f8 10c0
00000150: 59cd d9be 2b4e 1f40 4e67 8bbe 664e 893f
00000160: 06e1 713f b451 873f 26db 00bf 26c5 08be
00000170: 3afd d3bd 2a88 72bf 43c4 86be ad15 ea3e
00000180: 711b 0dbe b2d8 973d 3e3a bc3e a923 ad3d
1.3316941 0.4145322 0.94742423 1.6329558 0.45777187 -1.5639395 -0.25267845 -0.63542753
-0.30553454 -0.74332637 -1.4452299 -0.6234209 -0.5573616 -1.6885825 -0.17613883 1.8253264
-0.2160117 0.68060184 0.5666485 0.6568583 -0.60743344 0.05448152 -0.35445482 -0.7589752
-0.1791992 0.7014482 0.03643908 0.08083828 0.20948079 0.32385704 -1.2786835 -0.51652503
-0.9214887 -1.0216565 -0.17812836 1.6150293 -0.27569595 0.41985822 0.6926175 0.8427945
1.054271 0.25033572 0.9751846 1.6370562 0.4626843 -1.9038378 0.023108233 -0.47507167
-0.84139293 -0.93757105 -0.06669387 -0.21109596 0.109672904 -0.3134002 -0.0827678 0.32686839
0.07240753 -0.15762332 0.060571827 -0.037528 1.9690336 0.8039811 1.3385364 2.4052594
0.18637022 -2.3896697 -0.257513 -0.8380013 -0.57595074 -1.3434494 0.73386544 0.4242499
0.42343292 0.61954886 0.040253427 -0.6625908 -0.23016487 -0.6144983 -0.46529627 -0.33126774
-1.9046849 -0.35898286 -1.3089021 -2.2651808 -0.4253948 2.489146 -0.27227253 1.072705
0.94483984 1.0571809 -0.50334394 -0.13356456 -0.103510335 -0.9473902 -0.2632161 0.45719662
-0.1378 0.07414378 0.36763185 0.08454067

bias f4 [10]
00000000: f73e c4be 69c7 4d3e 1b78 24bd c0cf 7f3c
00000010: a58e 293e cb45 093e d990 afbe 611f 8a3d
00000020: 8065 cd3d a1ff 583e
-0.38329288 0.200956 -0.040153604 0.015613496 0.16558321 0.1340553 -0.34290197 0.06744266
0.10029125 0.21191265

weight f4 [1, 10]
00000000: 7df9 48c0 b34b 5240 9bb6 9d3f c560 3440
00000010: 9cc7 54c0 6c62 a73e 9db3 a0c0 eb5b bbbf
00000020: dfff 9c40 2acb 8e3f
-3.1402276 3.2858703 1.2321352 2.8184063 -3.3246832 0.32692277 -5.0219254 -1.4637426
4.9062343 1.1155751
