aip/mymodel_8000.pt (torch, 4943 bytes, 7 tensors)

weight f4 [10, 2]
00000000: b265 82c0 6507 78c0 3fc7 b93e 791a 0d3f
00000010: 4258 0f40 aae4 83c0 f645 3dbf 082e 2b40
00000020: 02bf a3c0 6cc5 5e40 bf6f 493f 285c 5a3f
00000030: 684c 5840 9e8c 4a40 6f3b 02bf 4e2e d7be
00000040: 1cc1 5ebf 8cd2 0a3e 31fa 58bf 3923 febe
-4.074914 -3.8754513 0.36284825 0.5511852 2.2397618 -4.121663 -0.73934877 2.6746845
-5.1170664 3.4807997 0.78686136 0.8529687 3.3796635 3.1648326 -0.5087194 -0.42027515
-0.8701341 0.1355688 -0.8475676 -0.49636248

bias f4 [10]
00000000: 764c 523f e3c4 e73d 1715 61bf bda2 b93d
00000010: 833f c4bf 64d8 2cbf b351 91be 0345 48be
00000020: 447f e03d 1b13 3b3d
0.8214792 0.1131685 -0.87922806 0.09064243 -1.5331882 -0.67517686 -0.28382644 -0.19557576
0.10961774 0.045672517

weight f4 [10, 10]
00000000: 409a d43f f390 373f 3e11 dfbf d4e2 9e3f
00000010: 4dbc 2dc0 8ef9 173f c09a b1bf 8a4a 0ebe
00000020: 4195 6c3e f680 ddbe 120f 1d3f f771 b53b
00000030: 4599 31bf c386 113f 5143 63bf 7090 e23c
00000040: cc28 cbbe e17c 963d 27ec c0be 7225 6abe
00000050: 6349 ce3f 93c6 3d3e bfbd 8bbf fb50 163f
00000060: 865e d3bf 641e 103f 75ef 50bf 9a68 babe
00000070: 63ca 243e 1da7 8bbe 98c6 1740 f108 fe3e
00000080: 6798 11c0 0597 b23f 8e0c 3ac0 146c 293f
00000090: edd8 c1bf 9c8d 0cbd ab83 da3d def7 87be
000000a0: eed7 c13e de62 6abe 1ada 17bf c192 a23d
000000b0: 14b9 19bf 3c07 1e3e 3558 bebe 394e 743e
000000c0: 487b 94be 99e7 283e b3bf 11c0 77d2 87be
000000d0: 6b80 1b40 d897 d3bf 1825 5140 e29a 77bf
000000e0: 1da8 883f ce43 d03e 27c0 ba3e 82c1 893e
000000f0: 3007 573e f946 c23d 3f07 c8bd 1f13 69be
00000100: 6a59 cb3d 0b14 ab3d 45cc 82be 02fa d8ba
00000110: 31bc b3be 464a 6bbe 1953 d6be 6587 19be
00000120: 8c13 813f c83b 3ebf f7d0 a83f 913d 59be
00000130: a63e ab3e 8ccd 4f3e 8591 823e 852e 663d
00000140: 34b9 4ebf 20ec dcbe 45bc 4d3f ca3e 2fbf
00000150: b3cb 8e3f 7deb 3dbe c34f 983e cd53 bdbc
00000160: 3f63 183e 0f4e cf3e f323 9abf 1f31 bfbe
00000170: 827d 933f 453f 6fbf 6a12 a63f cdfd 02bf
00000180: 9ad7 583f e8b0 013d d2db 843e 70bb a03e
1.6609573 0.7170555 -1.7427137 1.2412972 -2.714618 0.59365165 -1.3875351 -0.13895622
0.23103811 -0.43262452 0.6135112 0.0055372673 -0.69374496 0.56846255 -0.8877459 0.027656764
-0.39679563 0.073480375 -0.3768017 -0.22865847 1.6116146 0.18532781 -1.0917281 0.58717316
-1.6513221 0.5629637 -0.8161538 -0.3640793 0.1609283 -0.27275935 2.3714962 0.49616197
-2.274927 1.3952338 -2.9070163 0.6618054 -1.5144325 -0.034314737 0.10669645 -0.26556295
0.37860054 -0.22889277 -0.5931717 0.07938147 -0.6004803 0.15432447 -0.37176672 0.23857965
-0.29000306 0.16494597 -2.2773254 -0.2652776 2.429713 -1.6530714 3.267889 -0.9672071
1.0676304 0.4067673 0.36474726 0.26905447 0.20998836 0.09486193 -0.09767007 -0.227612
0.09929164 0.08353432 -0.2554647 -0.0016554 -0.35104516 -0.22977552 -0.41860273 -0.14993055
1.008409 -0.7430997 1.3188771 -0.21214892 0.33446234 0.20293254 0.25501648 0.05619671
-0.8075135 -0.431489 0.803654 -0.68455184 1.1155914 -0.18546863 0.29748353 -0.023111248
0.1488161 0.4048924 -1.2042221 -0.37342164 1.1522677 -0.93455917 1.297437 -0.5116852
0.8470398 0.03166285 0.2594896 0.31393003

bias f4 [10]
00000000: a8ee 083f c22e f03d f123 ce3e 4113 383f
00000010: 7576 42be 5c0f 13bf 852c cbbd ba7d 26be
00000020: 9d88 003e d329 28be
0.5348916 0.11727668 0.40261796 0.7190438 -0.189905 -0.5744531 -0.09920601 -0.16258898
0.12552114 -0.16422205

weight f4 [10, 10]
00000000: 09fe b03f a36c dd3e b642 7b3f 3e63 d83f
00000010: 6694 ef3e 8d91 d0bf 0f51 81be f9e9 29bf
00000020: 3f10 aabe 0b47 47bf d371 bfbf 8221 24bf
00000030: 4d50 17bf f46b dfbf 28ae 3ebe 20ea f13f
00000040: f058 5dbe f15c 353f 41c7 173f 5606 313f
00000050: 9f5c 23bf 7548 383d 92a7 bfbe ef46 4bbf
00000060: 85ab 3cbe 3c2d 3f3f ea82 1c3d 10b4 d03d
00000070: 100c 6b3e 2bfa b23e 300f aabf 82ac 08bf
00000080: 6b6b 74bf 7efd 89bf 7777 40be 7903 d73f
00000090: ae1d 8dbe d65a e53e cb18 383f 9bb2 603f
000000a0: 067a 8d3f b272 893e 0132 813f 58e5 d83f
000000b0: 742e f23e 4ff2 fbbf a9bb c03c 90af 00bf
000000c0: dd09 5ebf 0dce 78bf d793 9ebd c162 5cbe
000000d0: 4257 d13d 68a4 a6be 71a4 aebd c281 ad3e
000000e0: 5510 933d 72a8 1cbe 2f05 853d 3cbc 00bd
000000f0: b7ba 0040 608f 513f fce6 ae3f 44fc 1c40
00000100: 1817 473e 4c82 1cc0 1d0d 84be cbd8 5cbf
00000110: 8f5b 19bf c6ce afbf 2dac 463f dcc8 e13e
00000120: 93f1 e73e 7cb5 2a3f 5a14 4f3d e114 35bf
00000130: ec7d 68be be8a 21bf cf2f f6be 60eb b4be
00000140: e944 f9bf 2176 bfbe b829 abbf 560c 14c0
00000150: c113 debe 1dd7 2240 2b65 8bbe 6f64 8c3f
00000160: d5a8 773f cf1a 8b3f e23b 08bf 5b10 12be
00000170: 2a6a fabd a4f3 7abf e545 89be 4478 ff3e
00000180: f3a9 0bbe 1031 bf3d e596 c53e e358 dd3d
1.3827525 0.43246946 0.9814867 1.6905286 0.46792907 -1.6294419 -0.25257155 -0.6637264
-0.3321552 -0.7784278 -1.4956611 -0.6411363 -0.59106904 -1.745482 -0.18621123 1.8899574
-0.21615958 0.7084494 0.5928841 0.6915029 -0.63813204 0.044990975 -0.37432534 -0.7940511
-0.18424805 0.746784 0.038210787 0.10190594 0.2295382 0.34956488 -1.3285885 -0.53388226
-0.95476407 -1.0780485 -0.18795572 1.6797935 -0.27561706 0.44795865 0.7191283 0.8777253
1.1052864 0.26845318 1.0093385 1.694499 0.47301066 -1.9683322 0.023526983 -0.5026789
-0.867338 -0.9718941 -0.07743042 -0.21522047 0.10221721 -0.32547307 -0.085274585 0.3388806
0.071808495 -0.15298632 0.06495129 -0.031429514 2.0113962 0.818594 1.3664241 2.452897
0.19442403 -2.4454527 -0.25791255 -0.862683 -0.5990533 -1.3734977 0.7760647 0.44098556
0.45301494 0.66683173 0.05055652 -0.70734984 -0.22704285 -0.6310233 -0.4808335 -0.35335827
-1.9474155 -0.37394813 -1.3372107 -2.313253 -0.43374446 2.5443795 -0.27225623 1.096815
0.9674199 1.0867556 -0.53216374 -0.14264052 -0.122272804 -0.98028016 -0.26811138 0.49896443
-0.13639049 0.0933553 0.38591686 0.108079694

bias f4 [10]
00000000: 7c33 c6be ad9f 513e c657 04bd cc7d a43c
00000010: a689 263e ff80 083e 82cb b1be d7cc 943d
00000020: 0076 d43d 13cd 5f3e
-0.38711154 0.20471068 -0.03231027 0.020079516 0.16263446 0.13330458 -0.34725577 0.072656326
0.10374069 0.21855573

weight f4 [1, 10]
00000000: 3795 54c0 d6b1 5d40 607e a83f 83cc 3e40
00000010: 81c9 60c0 ea93 b13e 85d9 a7c0 cc09 c9bf
00000020: 58d6 a340 0b57 983f
-3.3216074 3.4639792 1.3163567 2.9812324 -3.5122988 0.34683162 -5.2453027 -1.5706115
5.119915 1.1901563
