aip/mymodel_3000.pt (torch, 4943 bytes, 7 tensors)

weight f4 [10, 2]
-4.0546236 -3.8486452 0.35326526 0.5425439 2.1964617 -4.0727344 -0.71504784 2.6335373
-5.068273 3.4345255 0.7728872 0.84312034 3.3659046 3.1462243 -0.50518507 -0.4177548
-0.8657857 0.13780034 -0.8420978 -0.49541378
00000000: 7abf 81c0 3450 76c0 2fdf b43e 28e4 0a3f
00000010: d492 0c40 d753 82c0 600d 37bf e08b 2840
00000020: 4b2f a2c0 44cf 5b40 efdb 453f bcd6 573f
00000030: fb6a 5740 bd5b 4940 cf53 01bf f5e3 d5be
00000040: 22a4 5dbf 881b 0d3e b993 57bf e0a6 fdbe

bias f4 [10]
0.8000016 0.11787532 -0.8578922 0.08350373 -1.5145648 -0.6598697 -0.26879093 -0.1976257
0.110726856 0.038876977
00000000: e8cc 4c3f 9e68 f13d d39e 5bbf 0104 ab3d
00000010: 42dd c1bf 38ed 28bf f79e 89be 645e 4abe
00000020: c3c4 e23d 773d 1f3d

weight f4 [10, 10]
1.6429324 0.7095135 -1.7079265 1.2204175 -2.6698594 0.58086294 -1.3774852 -0.134623
0.23533458 -0.42632455 0.60491973 -6.399091e-09 -0.68188936 0.55807763 -0.86986434 0.020508708
-0.39583915 0.07367159 -0.37679833 -0.22771485 1.5988334 0.17830643 -1.0662613 0.5701289
-1.6178929 0.55193937 -0.8109475 -0.36114913 0.16371006 -0.26822773 2.356545 0.4870502
-2.2399879 1.3738691 -2.8517373 0.6455635 -1.5069723 -0.027943946 0.11423414 -0.2560704
0.3730384 -0.23275782 -0.5862072 0.07247856 -0.590301 0.14965598 -0.37176672 0.23829561
-0.29051748 0.16505258 -2.254331 -0.25726876 2.3945596 -1.6323763 3.2167492 -0.95414364
1.0549921 0.4030969 0.3604896 0.26342884 0.20969246 0.09501676 -0.096995376 -0.227612
0.10016889 0.083576374 -0.2548936 -0.0014602524 -0.35080984 -0.22955054 -0.4070826 -0.14617145
0.99103 -0.73321354 1.2929714 -0.20584743 0.32780787 0.20100948 0.25269595 0.053286526
-0.795985 -0.42835978 0.78545785 -0.67515004 1.0887378 -0.17960237 0.28973314 -0.0255006
0.14591812 0.40147197 -1.1907746 -0.36832353 1.1314708 -0.9225391 1.2626374 -0.503021
0.8396787 0.028878583 0.2558096 0.30962473
00000000: 9c4b d23f ada2 353f 569d dabf a436 9c3f
00000010: fade 2ac0 6fb3 143f 6f51 b0bf 9dda 09be
00000020: 8cfb 703e 3647 dabe 05dc 1a3f 00df dbb1
00000030: 4d90 2ebf 2dde 0e3f 6eaf 5ebf e101 a83c
00000040: 6eab cabe 21e1 963d b6eb c0be 152e 69be
00000050: 93a6 cc3f f695 363e 407b 88bf f8f3 113f
00000060: 1d17 cfbf e64b 0d3f 419a 4fbf 8ae8 b8be
00000070: 9ca3 273e 2555 89be a2d1 1640 a55e f93e
00000080: f65b 0fc0 f1da af3f dd82 36c0 a643 253f
00000090: 78e4 c0bf b4ea e4bc 97f3 e93d a91b 83be
000000a0: e4fe be3e 1158 6ebe ad11 16bf a46f 943d
000000b0: f71d 17bf 6b3f 193e 3558 bebe c403 743e
000000c0: b5be 94be 8b03 293e f646 10c0 bbb8 83be
000000d0: 7740 1940 b5f1 d0bf 38df 4d40 c242 74bf
000000e0: fb09 873f b862 ce3e 1892 b83e 25e0 863e
000000f0: 9fb9 563e 2698 c23d 83a5 c6bd 1f13 69be
00000100: 5925 cd3d 172a ab3d 6a81 82be f165 bfba
00000110: 599d b3be 4c0f 6bbe 216d d0be f8ad 15be
00000120: 24b4 7d3f e2b3 3bbf 1680 a53f abc9 52be
00000130: 6fd6 a73e 6ed5 4d3e 5d61 813e f942 5a3d
00000140: acc5 4bbf f951 dbbe c413 493f a2d6 2cbf
00000150: c35b 8b3f afe9 37be e757 943e a2e6 d0bc
00000160: 8f6b 153e bc8d cd3e 4d6b 98bf e794 bcbe
00000170: 09d4 903f 862b 6cbf 1a9e a13f fcc5 00bf
00000180: 2ff5 563f c792 ec3c 7af9 823e 2287 9e3e

bias f4 [10]
0.5318278 0.111830585 0.39857554 0.71608365 -0.1941176 -0.57008046 -0.09884585 -0.16071989
0.12626825 -0.16173874
00000000: de25 083f 6f07 e53d 1812 cc3e 4251 373f
00000010: c4c6 46be cbf0 11bf b16f cabd c193 24be
00000020: 774c 013e d79e 25be

weight f4 [10, 10]
1.351225 0.42136985 0.9604251 1.6549983 0.46164483 -1.589022 -0.25261885 -0.6462085
-0.31566644 -0.756705 -1.464552 -0.63017887 -0.5702446 -1.710403 -0.1799802 1.8501434
-0.21607077 0.69124776 0.57667047 0.6701058 -0.6188596 0.050983813 -0.3618204 -0.7720481
-0.18105166 0.7184469 0.03712899 0.08872767 0.21698587 0.33347556 -1.2976942 -0.5230995
-0.93412787 -1.0431597 -0.18184653 1.6397959 -0.27563635 0.43056843 0.7027145 0.856107
1.0738304 0.25726026 0.98825186 1.6590977 0.4666335 -1.9285794 0.023279073 -0.485604
-0.8512814 -0.9506739 -0.07068203 -0.21261999 0.10691123 -0.31788906 -0.08369303 0.33134845
0.072188005 -0.15589963 0.062198214 -0.035262115 1.9854785 0.8096307 1.349337 2.4237685
0.18948199 -2.4113798 -0.2576729 -0.84756726 -0.58489674 -1.355095 0.7497242 0.43054533
0.4345439 0.63732594 0.04413759 -0.6792941 -0.22894317 -0.62058175 -0.47100607 -0.33943072
-1.9212755 -0.3647695 -1.3198653 -2.2838602 -0.42862186 2.5106292 -0.27225623 1.0820447
0.953578 1.0686393 -0.51407534 -0.1369191 -0.11047291 -0.9596522 -0.26502097 0.47282916
-0.13725771 0.0813167 0.3744529 0.09332491
00000000: f1f4 ac3f cabd d73e 6bde 753f fcd6 d33f
00000010: b65c ec3e 1365 cbbf 4257 81be ec6d 25bf
00000020: 089f a1be 6bb7 41bf 7176 bbbf 6753 21bf
00000030: 8dfb 11bf 7cee dabf bb4c 38be 80d1 ec3f
00000040: a841 5dbe 9df5 303f ada0 133f 0e8c 2b3f
00000050: 956d 1ebf 67d4 503d 8640 b9be f2a4 45bf
00000060: 9b65 39be 23ec 373f 9114 183d dab6 b53d
00000070: 8b31 5e3e 4fbd aa3e d81a a6bf d9e9 05bf
00000080: 0123 6fbf 4286 85bf fa35 3abe d5e4 d13f
00000090: 3520 8dbe 7773 dc3e 19e5 333f d429 5b3f
000000a0: 4673 893f 9eb7 833e 13fe 7c3f 505d d43f
000000b0: 96ea ee3e b1db f6bf c1b3 be3c 16a1 f8be
000000c0: 94ed 59bf 5d5f 73bf bdc1 90bd 0eb9 59be
000000d0: 46f4 da3d 5bc2 a2be 4067 abbd 81a6 a93e
000000e0: 4ed7 933d 27a4 1fbe 8ec3 7e3d 026f 10bd
000000f0: 2924 fe3f f543 4f3f 13b7 ac3f 061f 1b40
00000100: 9107 423e 0c54 1ac0 b4ed 83be 2bfa 58bf
00000110: cbbb 15bf c173 adbf eded 3f3f 7070 dc3e
00000120: 8a7c de3e cb27 233f 9ec9 343d 38e6 2dbf
00000130: 1470 6abe 72de 1ebf b527 f1be ddc9 adbe
00000140: 5bec f5bf 11c3 babe 59f1 a8bf c42a 12c0
00000150: 5374 dbbe 26ae 2040 2b65 8bbe 7180 8a3f
00000160: b01d 743f 2cc9 883f 719a 03bf 8534 0cbe
00000170: 9f3f e2bd c4ab 75bf d4b0 87be aa16 f23e
00000180: 498d 0cbe 5f89 a63d 4ab8 bf3e 2121 bf3d

bias f4 [10]
-0.384738 0.20240608 -0.037145525 0.017364414 0.16447832 0.13378625 -0.34460297 0.069538
0.101635784 0.21443579
00000000: 61fc c4be 8a43 4f3e e825 18bd d13f 8e3c
00000010: 016d 283e 43ff 083e cd6f b0be f069 8e3d
00000020: 6c26 d03d 0e95 5b3e

weight f4 [1, 10]
-3.2085636 3.3531814 1.2635424 2.8797646 -3.3954515 0.3343476 -5.1067495 -1.5035163
4.987517 1.1433511
00000000: 1b59 4dc0 869a 5640 c2bb a13f 104e 3840
00000010: 144f 59c0 9c2f ab3e 7e6a a3c0 3973 c0bf
00000020: bd99 9f40 5459 923f
