aip/mymodel_6000.pt (torch, 4943 bytes, 7 tensors)

weight f4 [10, 2]
00000000: 2e2d 82c0 4673 77c0 8e1f b83e 085d 0c3f
00000010: fc68 0e40 de5d 83c0 a228 3bbf 664a 2a40
00000020: 7738 a3c0 36c6 5d40 233a 483f d284 593f
00000030: 8300 5840 1c26 4a40 aeec 01bf a5bf d6be
00000040: 075f 5ebf be9a 0b3e 1480 58bf 78fa fdbe
-4.068015 -3.8664107 0.35961574 0.54829454 2.2251577 -4.1052084 -0.73108876 2.660791
-5.1006427 3.4652228 0.7821371 0.8496829 3.3750312 3.158576 -0.5075177 -0.41943088
-0.8686375 0.13633248 -0.8457043 -0.49605155

bias f4 [10]
00000000: 7175 503f 5610 eb3d 243c 5fbf a390 b43d
00000010: 0671 c3bf eb81 2bbf 7cba 8ebe 58fc 48be
00000020: 6d45 e13d dfa0 313d
0.814292 0.11477725 -0.8720114 0.0881665 -1.5268867 -0.66995114 -0.2787665 -0.19627512
0.1099957 0.04336631

weight f4 [10, 10]
00000000: 13d3 d33f 45ea 363f bb90 ddbf f6fb 9d3f
00000010: ccc4 2cc0 acde 163f b12b b1bf a7cb 0cbe
00000020: e012 6e3e 596a dcbe 1650 1c3f 7a82 703b
00000030: 8791 30bf aca0 103f 53b5 61bf 29c8 ce3c
00000040: 9efb cabe 5fa1 963d b6eb c0be 85d0 69be
00000050: dfbb cd3f 1e5d 3b3e 4fa3 8abf 5ed8 143f
00000060: c1eb d1bf 012b 0f3f 827a 50bf 7fe5 b9be
00000070: 83c5 253e f8dc 8abe 3774 1740 3876 fc3e
00000080: 6fd7 10c0 eeaa b13f 51db 38c0 1c05 283f
00000090: a486 c1bf dbc3 03bd 11ba df3d a154 86be
000000a0: 75e0 c03e 4fbb 6bbe 353f 17bf 60c4 9d3d
000000b0: 6cd6 18bf 6067 1c3e 3558 bebe c035 743e
000000c0: b892 94be 69ef 283e f640 11c0 ed70 86be
000000d0: 95be 1a40 51b3 d2bf dc0a 5040 667a 76bf
000000e0: e71c 883f f9a1 cf3e 9403 ba3e 37c9 883e
000000f0: d5ed 563e 6761 c23d 7991 c7bd 1f13 69be
00000100: 7ff2 cb3d db1b ab3d 7bb4 82be f37e d0ba
00000110: 61b4 b3be bf36 6bbe ab52 d4be f837 18be
00000120: 9852 803f aa5f 3dbf 5eb1 a73f a10c 57be
00000130: b217 aa3e 6924 4f3e 202b 823e c82b 623d
00000140: 9eb8 4dbf fd5e dcbe 3d28 4c3f 806c 2ebf
00000150: 66a1 8d3f 34de 3bbe c6f9 963e 74e1 c3bc
00000160: 1764 173e 3ab7 ce3e 9f8e 99bf cc4d bebe
00000170: 3197 923f 0a34 6ebf 8e90 a43f e83c 02bf
00000180: fc34 583f 28b7 fb3c f238 843e 3dfd 9f3e
1.654879 0.71451217 -1.7309793 1.2342517 -2.6995115 0.5893352 -1.3841459 -0.13749562
0.23249388 -0.43049887 0.610597 0.0036698864 -0.6897206 0.56495166 -0.88167304 0.025241928
-0.39645094 0.07354998 -0.37679833 -0.2283345 1.6072959 0.1829724 -1.0831088 0.5814265
-1.6400071 0.55924994 -0.8143693 -0.36307904 0.16188626 -0.2712171 2.3664682 0.49308944
-2.263149 1.3880289 -2.888386 0.65632796 -1.5119214 -0.032169204 0.10924161 -0.26236442
0.37671247 -0.23020671 -0.5908082 0.07703471 -0.5970218 0.1527381 -0.37176672 0.23848629
-0.29018188 0.16497578 -2.26959 -0.2625803 2.4178822 -1.6460973 3.2506628 -0.96280515
1.063382 0.40553263 0.36330855 0.26716015 0.20989163 0.09491234 -0.097445436 -0.227612
0.09958362 0.083549224 -0.2552832 -0.0015906974 -0.35098556 -0.22970103 -0.4146932 -0.148651
1.0025206 -0.73974097 1.3101003 -0.21000911 0.33221203 0.20228733 0.25423527 0.055217534
-0.8035983 -0.4304122 0.797489 -0.6813431 1.106488 -0.18346483 0.29487437 -0.023911215
0.14784275 0.40374166 -1.199665 -0.3716873 1.145239 -0.93048155 1.2856615 -0.50874186
0.8445585 0.030726984 0.25824696 0.31247893

bias f4 [10]
00000000: 70ab 083f 5d6f ec3d 5275 cd3e 07d2 373f
00000010: b8ed 43be 2aaf 12bf 30ee cabd fdd4 25be
00000020: 6ed1 003e 4a4a 27be
0.5338659 0.11544678 0.4012857 0.7180485 -0.19133651 -0.5729853 -0.09908712 -0.1619453
0.12579891 -0.16336933

weight f4 [10, 10]
00000000: 88a0 af3f 457f db3e 126f 793f a0d9 d63f
00000010: 107d ee3e bed1 cebf 2151 81be 9564 28bf
00000020: c132 a7be 5564 45bf 6619 bebf 082e 23bf
00000030: 6482 15bf cbe7 ddbf 7a84 3cbe ee31 f03f
00000040: 1e51 5dbe 6fdf 333f 815f 163f d52b 2f3f
00000050: 9ba9 21bf bfca 403d 8171 bdbe a156 49bf
00000060: 3588 3bbe a7b0 3c3f 3608 1b3d b871 c73d
00000070: 9da2 663e 3d26 b03e d1b7 a8bf f1bb 07bf
00000080: e59f 72bf 037a 88bf f055 3ebe 0748 d53f
00000090: ae1d 8dbe ce55 e23e c5ab 363f 21d2 5e3f
000000a0: d01d 8c3f 1182 873e 3c48 803f b05d d73f
000000b0: 9213 f13e 6f3a fabf 0113 c03c b268 febe
000000c0: 0da5 5cbf 03f7 76bf 59cf 99bd c976 5bbe
000000d0: c6a9 d43d b04d a5be 3b85 adbd 142e ac3e
000000e0: 3155 933d b4af 1dbe 2e13 833d 5c26 06bd
000000f0: 492c 0040 0aca 503f 392b ae3f 825c 1c40
00000100: a263 453e 94c7 1bc0 b804 84be 818c 5bbf
00000110: 1d24 18bf 8704 afbf 565d 443f dcf4 df3e
00000120: a6b4 e43e dd1f 283f 6e19 463d 9e9c 32bf
00000130: 8823 69be 629d 20bf 9770 f4be bf73 b2be
00000140: 0526 f8bf fee1 bdbe ff6a aabf 186b 13c0
00000150: 2132 ddbe fd1d 2240 2b65 8bbe 0dc2 8b3f
00000160: 2a78 763f 9e53 8a3f ada3 06bf 5009 10be
00000170: 0313 f2bd 7822 79bf 8db9 88be 87e0 fa3e
00000180: 87f6 0bbe 61b7 b63d 1392 c33e d2f4 d23d
1.3720865 0.42870536 0.97435105 1.6785164 0.4657979 -1.6157758 -0.2525721 -0.65778476
-0.3265591 -0.7710622 -1.4851501 -0.63742113 -0.58402085 -1.7336363 -0.18409911 1.8765237
-0.21612975 0.7026281 0.5873948 0.6842626 -0.6314942 0.047068354 -0.3700066 -0.7864781
-0.18313678 0.7370705 0.037849627 0.09738487 0.2252297 0.34404173 -1.3181096 -0.5302115
-0.9477523 -1.0662235 -0.1858747 1.6662606 -0.27561706 0.4420609 0.7135585 0.8703938
1.0946598 0.2646642 1.0022044 1.6825466 0.47085243 -1.9549083 0.023446562 -0.4968925
-0.8618935 -0.9647066 -0.075102516 -0.21432032 0.10383944 -0.32285833 -0.08472677 0.33628905
0.07193983 -0.15399057 0.064001426 -0.032751426 2.002703 0.8155829 1.360694 2.4431462
0.19276288 -2.4340563 -0.2578485 -0.85761267 -0.59430104 -1.3673257 0.7670492 0.437415
0.44669074 0.6567362 0.048364095 -0.6977023 -0.2276746 -0.6274015 -0.4774215 -0.34853932
-1.9386603 -0.3708648 -1.3313903 -2.3034115 -0.43202308 2.5330803 -0.27225623 1.0918595
0.96277106 1.0806768 -0.525935 -0.14066052 -0.118200324 -0.9731822 -0.26704064 0.48999426
-0.13668261 0.089216955 0.38197383 0.10300602

bias f4 [10]
00000000: a8c9 c5be 66d4 503e 1b07 0bbd f814 9d3c
00000010: 0d2f 273e acad 083e 8657 b1be dcb7 923d
00000020: 2805 d33d 205e 5e3e
-0.38630414 0.20393524 -0.033942323 0.019175038 0.16326542 0.133475 -0.34637088 0.07163975
0.10303718 0.21715593

weight f4 [1, 10]
00000000: 451c 52c0 af46 5b40 e52a a63f 7a94 3c40
00000010: c13b 5ec0 cd60 af3e 8d57 a6c0 6814 c6bf
00000020: 0266 a240 e446 963f
-3.2829754 3.4261892 1.298184 2.9465623 -3.472397 0.3425354 -5.1981874 -1.5474977
5.074952 1.1740384
